checkpoint.pt (torch_old, 10105 bytes, 10 tensors)

lstm.weight_ih_l0 f4 [48, 4]
0.23832148 0.36397204 -0.14209497 0.24042809 0.18916376 0.06085406 -0.059663545 0.2823816
0.049986277 0.23545012 -0.055298597 -0.05916014 -0.18819244 -0.1460478 -0.0016563017 0.33714718
0.11710969 0.08104798 0.06775808 0.2834055 0.056667604 -0.20730482 0.28503907 -0.035098504
0.3584338 -0.052905586 0.06572922 0.31959233 -0.051376063 0.16130126 0.10869231 0.14986178
-0.1065314 0.08876933 -0.00837401 0.22917452 -0.10830524 0.04989085 0.3204849 0.06702396
0.22022529 0.08653242 -0.21637382 0.24111784 0.45846775 -0.00043036393 0.3552355 -0.17586052
0.23470668 0.02378335 0.006640372 0.25631765 0.16847163 -0.13576297 -0.07597082 0.32078883
-0.104963504 0.104508914 -0.018932078 0.25890005 0.120459415 0.11063525 0.240666 -0.1459594
0.21271122 -0.16193867 -0.05362863 0.33768237 0.13747884 0.21268083 -0.11447432 0.13251998
0.042872664 -0.036550898 0.015450666 -0.16080046 -0.15605624 -0.25325137 -0.27056992 -0.057693727
0.33093575 -0.15684329 0.28738934 0.26652122 0.33963752 -0.019710777 0.2664123 0.19213212
0.09004295 0.11895048 0.24400908 0.0007004065 0.2311508 0.12270621 -0.07694217 -0.1449224
0.11634395 0.21433137 0.17253003 -0.14641729 0.29980358 0.033868004 0.34382078 -0.120710276
0.09754491 -0.11067551 -0.26756853 0.23967661 0.1863989 0.2527435 -0.14256367 0.28353262
0.14869407 -0.09296951 -0.13407232 0.015412785 -0.3748702 -0.11498785 -0.0736444 0.17175268
0.1529489 -0.2460086 0.016259424 -0.03828253 0.12972777 0.050147172 -0.12807529 0.266513
-0.30734468 0.16668727 -0.31521708 0.14096941 -0.097221226 0.14008857 -0.09929971 0.23707923
-0.23374371 -0.1218247 0.20636095 0.12212752 -0.26774037 -0.03904124 -0.2825255 -0.017424358
0.12914756 0.26395535 0.08234931 0.08522042 -0.11343352 0.014945544 0.32071465 0.32118303
-0.23413642 -0.14995797 0.36644936 0.028301073 -0.09335729 0.23656984 0.12155242 -0.14318159
0.14616102 0.32149366 0.1592881 -0.008580486 0.006105797 -0.13734806 0.13596185 0.36033148
0.30344394 -0.11207843 -0.18174039 0.24558736 -0.27191675 -0.08590672 -0.086326145 0.28696325
-0.057152312 0.18051594 -0.14907698 0.20621587 -0.09720903 0.37887743 0.37462118 0.12403184
-0.15142101 0.33158225 0.085281156 0.2646038 0.13053307 0.02046223 0.16491507 -0.0014156332
00000000: 8c0a 743e 8b5a ba3e 5881 11be c832 763e
00000010: 25b4 413e 1b42 793d c361 74bd 5294 903e
00000020: 69be 4c3d d619 713e c880 62bd e751 72bd
00000030: 85b5 40be 8e8d 15be 4318 d9ba 8e9e ac3e
00000040: 35d7 ef3d 7cfc a53d c0c4 8a3d 871a 913e
00000050: 4a1c 683d b747 54be a4f0 913e 73c3 0fbd
00000060: a384 b73e 87b3 58bd 0b9d 863d 9ba1 a33e
00000070: b56f 52bd 282c 253e 139a de3d 5e75 193e
00000080: 222d dabd b2cc b53d 2533 09bc baac 6a3e
00000090: 23cf ddbd 595a 4c3d 9916 a43e dc43 893d
000000a0: bd82 613e e937 b13d 1991 5dbe 98e7 763e
000000b0: 49bc ea3e 78a2 e1b9 6de1 b53e c814 34be
000000c0: f356 703e 4dd5 c23c 7a97 d93b 113c 833e
000000d0: d483 2c3e 7305 0bbe 9796 9bbd 6f3e a43e
000000e0: 1bf7 d6bd c508 d63d 7217 9bbc 8c8e 843e
000000f0: 6db3 f63d bc94 e23d 2671 763e 6276 15be
00000100: f8d0 593e 40d3 25be b2a9 5bbd b4e4 ac3e
00000110: 41c7 0c3e 01c9 593e 8371 eabd 51b3 073e
00000120: 3f9b 2f3d 65b6 15bd ca24 7d3c e0a8 24be
00000130: 35cd 1fbe 2aaa 81be 2488 8abe 4250 6cbd
00000140: 6970 a93e 879b 20be b224 933e 7875 883e
00000150: f8e4 ad3e 7f78 a1bc 3167 883e 48be 443e
00000160: 7068 b83d 4f9c f33d 84dd 793e 7c9b 373a
00000170: ccb2 6c3e 654d fb3d db93 9dbd 8a66 14be
00000180: bd45 ee3d af79 5b3e b6ab 303e 6aee 15be
00000190: db7f 993e 2db9 0a3d 4709 b03e f336 f7bd
000001a0: a0c5 c73d d7a9 e2bd befe 88be c96d 753e
000001b0: 5adf 3e3e 9967 813e 36fc 11be 302b 913e
000001c0: 4243 183e cc66 bebd 414a 09be e885 7c3c
000001d0: fdee bfbe c07e ebbd e0d2 96bd efdf 2f3e
000001e0: a39e 1c3e aee9 7bbe 7c32 853c 24ce 1cbd
000001f0: 5bd7 043e 1f67 4d3d 2b26 03be 6474 883e
00000200: 485c 9dbe 11b0 2a3e 2264 a1be 495a 103e
00000210: ec1b c7bd 6173 0f3e a55d cbbd e6c4 723e
00000220: 835a 6fbe 3a7f f9bd 4950 533e fe1d fa3d
00000230: 4415 89be b5e9 1fbd 2fa7 90be 87bd 8ebc
00000240: 423f 043e 2825 873e c1a6 a83d 0b88 ae3d
00000250: d54f e8bd 28de 743c b634 a43e 1a72 a43e
00000260: 75c1 6fbe 958e 19be 409f bb3e a7d7 e73c
00000270: 1b32 bfbd 5d3f 723e 7af0 f83d 329e 12be
00000280: 3cab 153e d19a a43e 6b1c 233e 2b95 0cbc
00000290: 2313 c83b f8a4 0cbe 9539 0b3e 5e7d b83e
000002a0: 015d 9b3e 6089 e5bd 271a 3abe 417b 7b3e
000002b0: ac38 8bbe ddef afbd c3cb b0bd d9ec 923e
000002c0: 8b18 6abd 2cd9 383e a3a7 18be 412a 533e
000002d0: 8715 c7bd 39fc c13e 59ce bf3e 6804 fe3d
000002e0: 1c0e 1bbe 26c5 a93e e3a7 ae3d 267a 873e
000002f0: 76aa 053e 68a0 a73c 7fdf 283e c58c b9ba

lstm.weight_hh_l0 f4 [48, 12]
-0.2851563 0.032297395 0.005668695 -0.18408246 -0.079134434 0.1484301 -0.37844414 0.20478673
-0.07100968 -0.18952608 0.35456383 -0.011673003 -0.2675703 0.4166745 -0.11037406 0.13730234
-0.29438567 -0.18089302 0.08570196 -0.071336195 -0.12708847 -0.2144815 -0.13106617 -0.41329178
-0.13331032 0.24254583 -0.09407547 -0.086957216 0.063207716 0.0032185235 -0.35828564 0.27689523
-0.07472943 0.040784717 0.40729105 -0.07737169 -0.0017707613 0.22008185 -0.3073434 -0.086151905
-0.12878975 0.1968977 -0.26392272 0.31412604 -0.20856376 0.052836735 -0.073527105 0.09142774
-0.2711718 0.22828689 -0.065120965 -0.13322449 -0.195424 -0.13195966 0.11983394 0.20672865
0.08003962 0.23081414 0.0077973334 -0.040254608 0.13606247 0.16785234 -0.31711295 0.071671024
-0.34887955 -0.2819452 -0.112518966 -0.0786905 -0.31181434 -0.073169075 0.3177314 -0.030413922
-0.38716343 0.03289645 -0.27891847 0.16883592 -0.12469545 0.28383374 -0.2167085 -0.012150627
0.12558383 -0.19879171 0.2799853 -0.14175427 -0.161994 0.23931958 0.27229518 0.066389516
0.20622885 -0.042830046 0.14755382 -0.12860051 0.079452455 -0.28228983 -0.10863922 -0.28537413
0.041389413 -0.08266306 -0.16822988 0.1655033 -0.15029226 0.17916763 0.22344182 0.3294518
-0.28242585 -0.00042665878 -0.10651555 0.07895593 -0.088677496 0.0680072 -0.19833858 0.1954719
0.078561686 -0.16722389 -0.29692304 0.05368443 -0.122511394 -0.07101347 0.3004327 -0.17119956
-0.07528675 -0.1803005 0.09603862 0.0279781 0.09969655 0.16646145 0.12912393 -0.12434471
-0.18372887 0.13996725 0.22486985 -0.1341696 -0.14909159 0.1516483 -0.2704058 -0.032018445
-0.3192705 -0.21923669 0.075012416 0.40641108 0.054819707 0.042107627 0.3237159 -0.11101627
-0.32025105 0.1762014 -0.029182196 0.28187463 -0.11583546 0.13681278 0.14205803 -0.06558907
-0.14036453 0.16028348 0.31035185 0.12994513 0.092672214 -0.11386542 -0.28129417 0.25191432
-0.2103512 -0.33109123 0.03749394 -0.12222014 -0.39240664 -0.2815705 -0.07970625 -0.16176856
-0.10428974 0.3001716 -0.392834 0.2792691 0.0998192 0.10857016 0.14359634 0.09502632
0.044479195 -0.17663603 0.030098954 -0.10374586 -0.027469242 0.10527915 -0.13652393 0.023523705
-0.19503464 0.17308755 -0.142899 0.19586593 -0.30507913 0.26576084 -0.04127475 -0.07103911
-0.2885583 0.08312137 0.036360674 0.31249276 -0.1783576 -0.054528214 -0.2768768 -0.019655025
-0.15406728 -0.15029365 0.23507336 0.1251879 -0.3745726 0.09579229 -0.12975873 0.19878945
-0.26392 0.23222616 0.15099847 -0.169093 -0.36682114 0.19603659 0.16278063 0.07771216
-0.2167737 0.3311488 0.14168291 0.22474757 -0.016789664 -0.1764223 0.14465961 -0.19089007
-0.07399908 -0.1444384 -0.12309739 0.12147161 0.07608518 -0.2085248 0.022077965 0.037015185
-0.20605607 -0.24466905 0.32247597 -0.25875548 -0.19589211 0.24673693 0.19097492 -0.13015752
-0.19182822 0.38342604 -0.37512648 0.042989567 0.0626779 0.01503612 0.29802248 -0.0039937985
-0.3973633 0.21321432 0.30030382 -0.13129312 -0.22381608 0.0131061515 0.101188555 0.37272137
00000000: 0200 92be 464a 043d 76c0 b93b 1d80 3cbe
00000010: 3c11 a2bd 0ffe 173e 6ec3 c1be 9db3 513e
00000020: 866d 91bd 2013 42be 6489 b53e 2040 3fbc
00000030: f9fe 88be 5c56 d53e cc0b e2bd fc98 0c3e
00000040: b8b9 96be 053c 39be 8284 af3d b618 92bd
00000050: 7b23 02be 0aa1 5bbe 3636 06be fb9a d3be
00000060: 8082 08be ef5d 783e a4aa c0bd a016 b2bd
00000070: 0c73 813d dded 523b 3771 b7be 36c5 8d3e
00000080: be0b 99bd e00d 273d 7488 d03e 0c75 9ebd
00000090: e418 e8ba 235d 613e 1d5c 9dbe 6970 b0bd
000000a0: 76e1 03be 8d9f 493e e120 87be 21d5 a03e
000000b0: bd91 55be 556b 583d 6195 96bd 783e bb3d
000000c0: 08d7 8abe 0ac4 693e 245e 85bd 006c 08be
000000d0: 3b1d 48be 6f20 07be 7f6b f53d adb0 533e
000000e0: d0eb a33d 8b5a 6c3e c680 ff3b 04e2 24bd
000000f0: f653 0b3e 7ce1 2b3e a15c a2be 42c8 923d
00000100: 57a0 b2be 1f5b 90be 5870 e6bd 7c28 a1bd
00000110: 21a6 9fbe abd9 95bd b1ad a23e 9e26 f9bc
00000120: 493a c6be 6ebe 063d 67ce 8ebe 53e3 2c3e
00000130: 5460 ffbd a852 913e d5e8 5dbe 6c13 47bc
00000140: 0c99 003e 0e90 4bbe 3c5a 8f3e 0828 11be
00000150: c1e1 25be 3110 753e 466a 8b3e 3af7 873d
00000160: a82d 533e 8f6e 2fbd 5918 173e daaf 03be
00000170: f8b7 a23d 4b88 90be 3d7e debd 8f1c 92be
00000180: f287 293d 404b a9bd 7444 2cbe b279 293e
00000190: 37e6 19be b877 373e efcd 643e e8ad a83e
000001a0: 1f9a 90be 2cb1 dfb9 d324 dabd a6b3 a13d
000001b0: 8c9c b5bd 5c47 8b3d 4519 4bbe c929 483e
000001c0: f3e4 a03d bd3c 2bbe 4c06 98be 34e4 5b3d
000001d0: 41e7 fabd 836f 91bd 51d2 993e f04e 2fbe
000001e0: f12f 9abd b2a0 38be e5af c43d 5432 e53c
000001f0: b42d cc3d df74 2a3e 1039 043e 70a8 febd
00000200: 6c23 3cbe 9353 0f3e 4844 663e c163 09be
00000210: 77ab 18be b149 1b3e a172 8abe c625 03bd
00000220: 6c77 a3be 957f 60be 1ca0 993d 1d15 d03e
00000230: a18a 603d 0c79 2c3d 17be a53e 805c e3bd
00000240: f2f7 a3be 246e 343e 800f efbc df51 903e
00000250: 243b edbd a618 0c3e a977 113e 9053 86bd
00000260: b8bb 0fbe 5a21 243e 70e6 9e3e 5610 053e
00000270: eeca bd3d 4632 e9bd ca05 90be eafa 803e
00000280: 4e66 57be ca84 a9be 3f93 193d 8e4e fabd
00000290: 86e9 c8be 022a 90be 083d a3bd a8a6 25be
000002a0: dc95 d5bd 18b0 993e 8a21 c9be 5cfc 8e3e
000002b0: 026e cc3d 085a de3d eb0a 133e 299d c23d
000002c0: d12f 363d 13e0 34be 1592 f63c b678 d4bd
000002d0: 2d07 e1bc 989c d73d eecc 0bbe c9b4 c03c
000002e0: 29b7 47be dd3d 313e 1e54 12be 1491 483e
000002f0: 5533 9cbe ce11 883e b60f 29bd f47c 91bd
00000300: eabd 93be 893b aa3d eeee 143d 0dff 9f3e
00000310: 60a3 36be fa58 5fbd ccc2 8dbe 9303 a1bc
00000320: d0c3 1dbe 94e6 19be 12b7 703e 4231 003e
00000330: fbc7 bfbe c02e c43d 79df 04be 768f 4b3e
00000340: 8620 87be b2cc 6d3e 589f 1a3e b726 2dbe
00000350: fbcf bbbe d1bd 483e f7af 263e 8e27 9f3d
00000360: edf9 5dbe 568c a93e 5315 113e 3a24 663e
00000370: 7a8a 89bc 0ca8 34be a621 143e b078 43be
00000380: d48c 97bd a9e7 13be 7c1a fcbd 1cc6 f83d
00000390: 8cd2 9b3d 8687 55be d9dc b43c 3c9d 173d
000003a0: 5d00 53be 868a 7abe 921b a53e 997b 84be
000003b0: f197 48be 9ba8 7c3e ee8e 433e 0348 05be
000003c0: 9e6e 44be 6b50 c43e 9410 c0be d415 303d
000003d0: 455d 803d 0f5a 763c 6796 983e 69de 82bb
000003e0: 3473 cbbe db54 5a3e 6cc1 993e b471 06be
000003f0: 0b30 65be 2fbb 563c f23b cf3d 56d5 be3e

lstm.bias_ih_l0 f4 [48]
-0.05535577 0.3267014 0.23436628 0.22030875 -0.0013477176 0.18039511 0.07586509 0.25121245
0.31340227 -0.079290375 -0.031009203 0.046103742 -0.12896809 0.36198053 0.35936075 0.2222858
0.018901791 -0.061392613 0.17934425 -0.16431248 -0.0176749 0.3767208 0.33210063 -0.047985222
0.04761012 0.2340992 -0.0010227772 -0.080321774 -0.05414729 -0.17522821 0.041267984 0.25748286
-0.017051246 0.076923095 -0.052463442 -0.020972855 -0.012353457 0.14665924 0.327942 0.312158
0.10947617 0.1556778 0.2753974 0.15823936 0.11516727 0.39301002 -0.17467193 0.08527294
00000000: bbbc 62bd 6845 a73e b7fd 6f3e 9e98 613e
00000010: e6a5 b0ba 7fb9 383e 285f 9b3d eb9e 803e
00000020: 4376 a03e fe62 a2bd 0307 febc 47d7 3c3d
00000030: 3610 04be 8355 b93e 22fe b73e e49e 633e
00000040: eed7 9a3c d276 7bbd 05a6 373e 8841 28be
00000050: f4ca 90bc 8ce1 c03e 1809 aa3e 278c 44bd
00000060: d402 433d b3b7 6f3e b50e 86ba be7f a4bd
00000070: 8cc9 5dbd 066f 33be 9e08 293d cbd4 833e
00000080: 0eaf 8bbc db89 9d3d e8e3 56bd 44cf abbc
00000090: 2766 4abc d72d 163e 04e8 a73e 2cd3 9f3e
000000a0: 0b35 e03d 006a 1f3e e300 8d3e 8009 223e
000000b0: d1dc eb3d 9c38 c93e 33dd 32be 94a3 ae3d

lstm.bias_hh_l0 f4 [48]
0.19333284 -0.049279433 0.25980628 0.32618198 -0.07036545 -0.075203836 -0.04968848 -0.219098
0.22543521 0.23655958 0.22332814 0.18448576 -0.0384056 0.128716 -0.13482754 -0.084092215
0.34864968 0.09234589 0.2795308 0.10459474 0.21165177 0.37542954 0.37575826 0.32926163
-0.095940225 0.19152348 -0.11364444 0.038697567 -0.30293533 -0.0011837145 0.061048545 0.26144436
-0.41461587 -0.25896555 0.23076108 -0.12141998 0.20071468 0.31275198 0.06498606 -0.14561899
-0.21580404 -0.06743752 0.33863115 -0.25658104 0.09248783 0.31176904 -0.0972957 0.023041692
00000000: 0bf9 453e 3bd9 49bd 5405 853e 5301 a73e
00000010: c31b 90bd 7804 9abd 2686 4bbd 3a5b 60be
00000020: 7dd8 663e ad3c 723e 22b0 643e d6e9 3c3e
00000030: 314f 1dbd 21ce 033e 3b10 0abe 8a38 acbd
00000040: 3682 b23e d81f bd3d a91e 8f3e c435 d63d
00000050: 3ebb 583e 4d38 c03e 6363 c03e fb94 a83e
00000060: 4f7c c4bd bb1e 443e 6bbe e8bd 5781 1e3d
00000070: 571a 9bbe de26 9bba 0a0e 7a3d 09dc 853e
00000080: 8848 d4be 2297 84be a24c 6c3e 0aab f8bd
00000090: 2688 4d3e 0721 a03e 6917 853d 251d 15be
000000a0: bcfb 5cbe af1c 8abd 1061 ad3e 975e 83be
000000b0: 426a bd3d 31a0 9f3e f842 c7bd eec1 bc3c

lstm.weight_ih_l1 f4 [48, 12]
0.13719921 0.3464178 -0.21588697 -0.1138634 -0.10110248 0.1060164 -0.26961234 0.1301265
-0.4116162 0.04867287 0.39093938 0.13619101 -0.11609623 0.16032618 -0.024432294 -0.05229408
0.032856785 0.035650186 0.061718874 0.17948273 -0.09900742 -0.059142493 0.18954922 -0.024094656
0.06753244 0.1186603 0.0014210102 0.07393538 -0.03378772 -0.17309949 -0.0052095097 0.28305668
-0.062434297 0.40225074 0.33612195 -0.029625677 -0.053581752 -0.11511204 -0.015093902 0.09328289
-0.1667403 0.022391107 0.026368763 0.07582792 -0.05752563 0.369232 -0.09939273 -0.34723067
-0.34326556 -0.24602054 0.14785026 0.1347405 0.16080827 0.385724 0.15071015 -0.16374315
0.10741247 0.1184828 -0.08697372 0.28340697 -0.33483708 0.18081358 -0.25590736 -0.14719568
0.13870667 0.06982252 -0.1595109 0.083769254 0.22226578 0.34340397 0.08737937 0.25952202
0.051886335 0.31328204 0.07583549 0.14557141 -0.4383834 0.08809935 0.26964933 0.14356814
-0.17831142 0.1667987 0.429137 -0.09988879 0.053812914 -0.04067933 -0.14724988 0.14931111
-0.2464671 -0.27755287 -0.23504846 0.40873295 0.063580826 0.2668469 0.29588744 -0.14287946
-0.23078464 0.008069494 -0.10864359 -0.1806363 -0.1132628 -0.1029393 -0.2933276 -0.045881
-0.29155368 0.12185785 0.37467283 0.040500835 0.18053105 0.259385 0.09798529 4.4451735e-05
-0.16082263 -0.19397503 -0.1647894 -0.055780623 -0.12856555 -0.2932478 -0.24063426 -0.12007881
-0.006911083 0.1553659 -0.025914479 0.16041648 0.12218736 0.112081364 -0.01777749 0.13436069
-0.35291252 0.18978943 -0.12089357 -0.13215296 0.063596606 0.26619753 0.14138184 0.30982518
-0.1771348 -0.20326982 0.062594816 0.2117833 0.036470417 0.080832355 -0.09444491 -0.0789838
-0.3311595 0.102547325 -0.12985194 0.050410803 -0.24236268 -0.21685152 -0.043976814 -0.040089123
0.046408743 0.32465893 0.15650369 -0.2663295 0.092662 0.065068975 -0.29787615 -0.048060723
-0.15641765 -0.07184127 -0.145009 0.39381954 -0.33418876 -0.16897984 0.22079194 -0.07107938
-0.34407455 -0.09956899 0.058464177 0.35351944 -0.13718258 0.12875433 -0.14723964 0.29143703
-0.23317467 0.25702715 0.17506228 -0.011279368 0.054783143 0.2935555 0.076282345 0.04352043
-0.19078697 0.15360732 -0.25775188 0.108687386 -0.28387228 0.19955155 0.22360875 0.02551095
0.10656592 -0.092624955 0.048218448 0.24073994 -0.35939157 0.08972191 -0.41714165 0.021021852
-0.13909581 0.42177346 0.16788663 0.12995456 -0.27632433 0.2704404 -0.3791684 -0.12456537
-0.2965175 0.21057566 0.08859608 -0.076490946 0.018764563 0.23504962 0.10357641 0.18160433
-0.35493624 0.012350422 0.101286925 0.015160607 -0.032726146 0.18742052 -0.06885955 0.08780609
-0.18475185 -0.011726854 0.29391173 -0.14111179 0.08615714 0.1769501 0.10932438 -0.11856458
-0.03874581 -0.25186998 -0.0067670853 -0.058584735 -0.3416398 0.017121758 0.20642939 0.06751602
0.107011855 0.34539688 -0.1258858 0.09878319 0.07653488 -0.15300475 -0.049412016 -0.036090083
-0.3741189 -0.04247767 0.30546907 0.12468242 -0.25199544 -0.073449194 -0.2549937 0.3098038
00000000: f37d 0c3e ad5d b13e 7911 5dbe 3731 e9bd
00000010: d10e cfbd 201f d93d a10a 8abe e23f 053e
00000020: 5cbf d2be 345d 473d 3529 c83e a875 0b3e
00000030: dcc3 edbd 8c2c 243e 3c26 c8bc 5132 56bd
00000040: d694 063d ee05 123d eecc 7c3d 52ca 373e
00000050: 67c4 cabd 663f 72bd 3119 423e 2862 c5bc
00000060: 734e 8a3d 2c04 f33d 3141 ba3a 6f6b 973d
00000070: fe64 0abd fe40 31be 89b4 aabb ceec 903e
00000080: 1bbb 7fbd cff3 cd3e 2d18 ac3e 8cb1 f2bc
00000090: 8a78 5bbd dcbf ebbd 6a4c 77bc 1a0b bf3d
000000a0: f8bd 2abe 8e6d b73c 4e03 d83c ab4b 9b3d
000000b0: ff9f 6bbd fa0b bd3e 6a8e cbbd 38c8 b1be
000000c0: 81c0 afbe cfec 7bbe 0f66 173e 6af9 093e
000000d0: ecaa 243e 9e7d c53e c353 1a3e 49ac 27be
000000e0: 12fb db3d 1ca7 f23d 471f b2bd b81a 913e
000000f0: c46f abbe 3227 393e 4a06 83be 77ba 16be
00000100: 1f09 0e3e 1cff 8e3d d356 23be 378f ab3d
00000110: a499 633e a5d2 af3e f5f3 b23d 12e0 843e
00000120: c486 543d 8166 a03e a34f 9b3d ac10 153e
00000130: ca73 e0be 6f6d b43d 7a0f 8a3e 8703 133e
00000140: 4597 36be 47cd 2a3e d8b7 db3e 7e92 ccbd
00000150: ee6a 5c3d 5e9f 26bd acc8 16be 03e5 183e
00000160: df61 7cbe 691b 8ebe 8bb0 70be 7245 d13e
00000170: aa36 823d 28a0 883e 8f7e 973e fe4e 12be
00000180: cf52 6cbe e935 043c 8880 debd b9f8 38be
00000190: 54f6 e7bd d7d1 d2bd 092f 96be b7ed 3bbd
000001a0: 8646 95be 9c90 f93d 1ed5 bf3e 34e4 253d
000001b0: 22dd 383e 1cce 843e 83ac c83d b071 3a38
000001c0: b0ae 24be 64a1 46be 8dbe 28be 397a 64bd
000001d0: b0a6 03be 9324 96be d468 76be e1eb f5bd
000001e0: 5e76 e2bb 3d18 1f3e 9a4a d4bc 3844 243e
000001f0: 5e3d fa3d ea8a e53d 19a2 91bc d995 093e
00000200: f3b0 b4be 2958 423e 0c97 f7bd 1b53 07be
00000210: f03e 823d 0b4b 883e 67c6 103e 68a1 9e3e
00000220: d362 35be f725 50be b631 803d b9dd 583e
00000230: 0162 153d 6f8b a53d 556c c1bd 42c2 a1bd
00000240: bd8d a9be 5504 d23d e8f7 04be 8f7b 4e3d
00000250: ec2d 78be 530e 5ebe 0821 34bd 7e34 24bd
00000260: 1817 3e3d b239 a63e 8142 203e 575c 88be
00000270: 93c5 bd3d e242 853d 3983 98be 52db 44bd
00000280: f32b 20be 8421 93bd 3d7d 14be b7a2 c93e
00000290: ca1a abbe 0d09 2dbe 4817 623e 1192 91bd
000002a0: 8a2a b0be d4ea cbbd 2278 6f3d 8000 b53e
000002b0: 9779 0cbe 2dd8 033e fdc5 16be 3c37 953e
000002c0: 57c5 6ebe 1099 833e 8743 333e 19cd 38bc
000002d0: 4a64 603d e84c 963e eb39 9c3d 7a42 323d
000002e0: a95d 43be 3d4b 1d3e 0ef8 83be 7e97 de3d
000002f0: b557 91be 3e57 4c3e b1f9 643e 57fc d03c
00000300: 3c3f da3d 27b2 bdbd b580 453d 8884 763e
00000310: 2c02 b8be 1fc0 b73d 9793 d5be 0536 ac3c
00000320: 226f 0ebe b1f2 d73e 79ea 2b3e cf12 053e
00000330: 627a 8dbe 2a77 8a3e 5c22 c2be 211c ffbd
00000340: 24d1 97be 25a1 573e dd71 b53d 49a7 9cbd
00000350: 24b8 993c d9b0 703e de1f d43d 7cf6 393e
00000360: 34ba b5be 6d59 4a3c 856f cf3d 3264 783c
00000370: da0b 06bd 2aeb 3f3e 3c06 8dbd aed3 b33d
00000380: 972f 3dbe fe21 40bc 997b 963e 9c7f 10be
00000390: 2873 b03d 6832 353e 76e5 df3d fdd1 f2bd
000003a0: edb3 1ebd 1af5 80be 6dbe ddbb 8cf6 6fbd
000003b0: 69eb aebe ee42 8c3c 3a62 533e d745 8a3d
000003c0: 0829 db3d dcd7 b03e 35e8 00be d74e ca3d
000003d0: 52be 9c3d 47ad 1cbe 4164 4abd 32d3 13bd
000003e0: 838c bfbe 11fd 2dbd 7166 9c3e 7f59 ff3d
000003f0: 8c05 81be 886c 96bd 898e 82be 9b9e 9e3e

lstm.weight_hh_l1 f4 [48, 12]
-0.12211937 0.08652101 0.11779574 0.14929287 0.24584822 -0.13216488 0.3619649 -0.0010242243
-0.1265772 0.42425087 -0.1726074 -0.018111426 0.265224 -0.21931446 -0.4211125 -0.40434366
-0.010937578 0.10041573 -0.026237275 -0.0008853243 0.16252604 -0.12043854 0.087316714 -0.11444505
-0.02040524 0.20030394 0.047228903 0.0026683684 0.16821115 -0.1731034 -0.13219851 -0.113516554
0.10377216 0.07738865 -0.25489053 -0.15276095 0.1342116 -0.05995682 0.20526475 0.11095101
0.1378483 -0.12178131 0.34720758 -0.018632637 0.20596597 -0.07718995 -0.35149783 0.09547989
0.4486353 0.20882577 -0.1976694 -0.33982566 0.24455713 0.21535526 -0.09189259 -0.1004513
0.093206026 -0.11309148 0.18624008 0.116606586 -0.035883296 -0.04030242 0.18591274 0.0022037602
0.06786253 0.04896652 0.09277149 0.079834364 0.12337366 0.24079394 -0.0050117616 0.0789573
0.3435862 0.13183954 -0.32076716 0.069352284 0.1968421 -0.30526218 0.21574047 -0.28964368
-0.14408398 0.2867884 -0.15187703 -0.040363852 -0.25786188 -0.27788275 0.0009952413 -0.1672524
0.37759903 -0.11767324 0.0764588 0.10228667 -0.24805757 0.26889214 -0.4404993 0.062970735
-0.08309483 0.1974733 -0.22803034 -0.1558024 0.26236677 -0.32679412 -0.14763865 0.17239802
0.030587543 -0.11804932 0.09984306 -0.06994426 -0.30163112 0.039027013 0.041694563 0.13019583
0.31845936 -0.15776616 -0.2523351 -0.06350165 0.13576575 -0.13263224 -0.27376762 -0.36808884
-0.29623067 0.04702415 0.07754942 -0.20957462 0.24838746 0.09695625 0.104672015 -0.302297
0.131744 -0.17046164 -0.22667535 -0.072199404 -0.15491001 0.24911727 -0.23412324 -0.27278367
-0.043855067 -0.46080512 -0.14013577 -0.31569296 0.104390405 -0.1077567 -0.398005 -0.16963416
-0.11573524 -0.14166802 -0.4019324 -0.24115291 0.27653804 -0.30205402 -0.06971276 0.21578023
-0.30539948 0.08006199 -0.33030477 0.31191233 -0.10303974 -0.30112055 -0.3070326 -0.0071109156
0.1809892 -0.34599704 -0.24056543 0.18016534 0.047369573 0.054765597 0.069632545 0.020154549
0.16641764 -0.075018026 0.005067002 -0.085987255 -0.112506896 -0.1524152 0.28960237 -0.027703429
-0.350569 -0.10680943 0.27239457 -0.0798544 0.21023916 0.21442315 0.12851486 0.14705902
-0.037291747 0.17494641 0.016561436 -0.06035868 -0.14772186 0.0033875727 -0.26999968 0.27547738
-0.0716411 0.25909364 0.15260744 0.03011434 0.04797518 -0.06895824 0.12281718 0.3329523
-0.19766833 -0.09710234 -0.115278274 0.40673846 0.12691197 0.017106159 0.11488746 -0.06871185
-0.10925054 0.15910819 0.35313484 -0.08960886 -0.021088276 -0.24325469 -0.15635674 0.0057366956
0.34844512 -0.15096878 0.08775098 -0.057732128 0.2844233 -0.2679279 0.19718094 -0.29970357
0.09819932 0.2502125 0.060722303 0.25903141 0.25330064 -0.12112923 -0.3799878 -0.27713823
0.20201537 -0.2593441 -0.20074882 -0.28330246 -0.26325995 0.12570047 -0.18199146 -0.2856654
-0.07629232 0.027934354 0.08300887 -0.019653656 -0.048833482 -0.32351556 0.20719044 0.14032792
0.18551885 0.33395988 0.17668945 0.2539966 -0.36792374 -0.22043672 -0.006334243 0.23344845
00000000: b819 fabd ed31 b13d e53e f13d 3be0 183e
00000010: a3bf 7b3e 3b56 07be 7753 b93e 443f 86ba
00000020: 749d 01be 6937 d93e ffbf 30be 6a5e 94bc
00000030: 71cb 873e f893 60be 0f9c d7be 2206 cfbe
00000040: 8733 33bc c3a6 cd3d 8eef d6bc 1c15 68ba
00000050: 3a6d 263e 7ba8 f6bd 1bd3 b23d 2b62 eabd
00000060: e428 a7bc 7a1c 4d3e 1873 413d cbdf 2e3b
00000070: 8b3f 2c3e 0542 31be 0c5f 07be 5e7b e8bd
00000080: 8086 d43d f17d 9e3d 0381 82be 5e6d 1cbe
00000090: c46e 093e 4895 75bd ec30 523e 483a e33d
000000a0: 1b28 0d3e 7b68 f9bd 31c5 b13e 79a3 98bc
000000b0: bee8 523e c415 9ebd 86f7 b3be f68a c33d
000000c0: 87b3 e53e 6cd6 553e d969 4abe a1fd adbe
000000d0: 2f6d 7a3e 1786 5c3e 2f32 bcbd 69b9 cdbd
000000e0: cde2 be3d 829c e7bd b8b5 3e3e 6fcf ee3d
000000f0: 5dfa 12bd 2614 25bd e95f 3e3e f66c 103b
00000100: 83fb 8a3d 1e91 483d fbfe bd3d 3380 a33d
00000110: 54ab fc3d b092 763e b439 a4bb 5db4 a13d
00000120: 88ea af3e f200 073e 983b a4be 9208 8e3d
00000130: fa90 493e 534b 9cbe 12eb 5c3e 2d4c 94be
00000140: c08a 13be eed5 923e a785 1bbe 9154 25bd
00000150: 7906 84be a646 8ebe c272 823a 3744 2bbe
00000160: a954 c13e abfe f0bd 6e96 9c3d ac7b d13d
00000170: ce02 7ebe 3bac 893e 2089 e1be cdf6 803d
00000180: 9f2d aabd 7136 4a3e c980 69be aa8a 1fbe
00000190: f054 863e 8f51 a7be 962e 17be 1b89 303e
000001a0: ba92 fa3c d8c3 f1bd 857a cc3d f03e 8fbd
000001b0: 656f 9abe cada 1f3d ebc7 2a3d 0e52 053e
000001c0: 1b0d a33e 748d 21be 1132 81be 270d 82bd
000001d0: 2d06 0b3e bfd0 07be 452b 8cbe 2476 bcbe
000001e0: 8cab 97be 659c 403d 3bd2 9e3d bb9a 56be
000001f0: 4859 7e3e 0091 c63d 485e d63d acc6 9abe
00000200: e6e7 063e 7f8d 2ebe 951d 68be 48dd 93bd
00000210: bba0 1ebe 9918 7f3e 01be 6fbe 4daa 8bbe
00000220: 5fa1 33bd a6ee ebbe c07f 0fbe 82a2 a1be
00000230: a3ca d53d 8baf dcbd 50c7 cbbe 94b4 2dbe
00000240: 9906 edbd 6c11 11be 15ca cdbe caf0 76be
00000250: 6596 8d3e d3a6 9abe 90c5 8ebd 7ef5 5c3e
00000260: 525d 9cbe 8af7 a33d b51d a9be f9b2 9f3e
00000270: 8006 d3bd 792c 9abe 6033 9dbe af02 e9bb
00000280: 3c55 393e 8626 b1be c956 76be 437d 383e
00000290: 9906 423d e451 603d 829b 8e3d 271b a53c
000002a0: 6369 2a3e 0da3 99bd 1809 a63b 161a b0bd
000002b0: 046a e6bd bb12 1cbe c346 943e 4df2 e2bc
000002c0: c87d b3be e7be dabd 4d77 8b3e b48a a3bd
000002d0: ef48 573e be91 5b3e 6699 033e a496 163e
000002e0: 3bbf 18bd 2725 333e d9ab 873c aa3a 77bd
000002f0: 6644 17be 0a02 5e3b 663d 8abe 5f0b 8d3e
00000300: 92b8 92bd eca7 843e 2045 1c3e 59b2 f63c
00000310: 9f81 443d fa39 8dbd 9387 fb3d b978 aa3e
00000320: 9169 4abe 97dd c6bd 0417 ecbd 0640 d03e
00000330: 36f5 013e 3722 8c3c 1e4a eb3d ccb8 8cbd
00000340: bfbe dfbd 42ed 223e 17ce b43e da84 b7bd
00000350: 52c1 acbc c217 79be fb1b 20be e4fa bb3b
00000360: 6667 b23e 8f97 1abe c9b6 b33d 8678 6cbd
00000370: ee9f 913e d92d 89be cde9 493e bf72 99be
00000380: ba1c c93d da1b 803e f3b7 783d c49f 843e
00000390: 9fb0 813e 9a12 f8bd c38d c2be 10e5 8dbe
000003a0: 1edd 4e3e c0c8 84be 1991 4dbe 050d 91be
000003b0: 02ca 86be a0b7 003e f85b 3abe bc42 92be
000003c0: 263f 9cbd 96d6 e43c 8e00 aa3d b400 a1bc
000003d0: 9e05 48bd d5a3 a5be bb29 543e 1fb2 0f3e
000003e0: a7f8 3d3e cafc aa3e 14ee 343e d80b 823e
000003f0: 8060 bcbe 2aba 61be 7b8f cfbb 1c0d 6f3e

lstm.bias_ih_l1 f4 [48]
0.33102953 0.44737202 -0.22266103 0.08175879 -0.010206444 -0.13711919 0.40567735 0.47545522
0.26406464 0.37374654 0.38861328 0.19841664 0.31145185 0.0659708 0.114377216 0.33693555
-0.13342112 0.21361741 0.15919386 0.023832163 0.061139785 -0.11319339 0.041123122 0.019007174
-0.1330742 -0.07219588 -0.13161509 0.036585175 -0.25473997 -0.1827956 0.13750671 -0.092257716
-0.17556645 0.2624247 -0.21044832 -0.13514869 0.15249434 0.49054882 -0.11128075 0.36516342
-0.1629869 -0.16968718 0.023019116 -0.043028675 0.020573335 0.23057382 0.31899136 -0.086863995
00000000: b47c a93e f20d e53e 4101 64be 2771 a73d
00000010: ee38 27bc f968 0cbe f1b4 cf3e de6e f33e
00000020: 7b33 873e b55b bf3e 52f8 c63e bb2d 4b3e
00000030: 9e76 9f3e b31b 873d 9a3e ea3d d182 ac3e
00000040: 8c9f 08be 86be 5a3e b703 233e ab3b c33c
00000050: b66d 7a3d f0d1 e7bd b870 283d efb4 9b3c
00000060: 9a44 08be 6fdb 93bd 1bc6 06be 56da 153d
00000070: 476d 82be c52e 3bbe 8fce 0c3e 9df1 bcbd
00000080: b1c7 33be 885c 863e c47f 57be 6b64 0abe
00000090: 7a27 1c3e 3729 fb3e 29e7 e3bd b3f6 ba3e
000000a0: 0ae6 26be 7ac2 2dbe 9692 bc3c d63e 30bd
000000b0: 6989 a83c 8b1b 6c3e d652 a33e c0e5 b1bd

lstm.bias_hh_l1 f4 [48]
0.048042692 0.3299328 -0.0906565 0.15499182 -0.26641956 0.0055419086 -0.090788014 0.12869993
0.28059378 0.25945184 0.11861304 -0.022975251 0.25801915 0.12772736 -0.22704707 0.27941585
0.028154207 -0.14986226 -0.119518615 -0.112461045 0.095435165 0.07855493 -0.030567301 0.10566245
-0.09559421 -0.12554716 -0.04574841 0.019338004 0.23184943 -0.06690712 -0.19281821 0.0066220025
0.322639 0.13475655 -0.24505603 0.102824286 0.27645648 0.15099962 0.28813085 -0.028595582
0.31072795 0.06475138 0.22958852 0.13165836 0.2728953 0.15152413 0.38908598 -0.051611546
00000000: 6ac8 443d f4ec a83e 1daa b9bd 2db6 1e3e
00000010: 2568 88be e698 b53b 11ef b9bd eac9 033e
00000020: fda9 8f3e dfd6 843e 65eb f23d 9836 bcbc
00000030: 161b 843e f6ca 023e 077f 68be 980f 8f3e
00000040: a7a3 e63c 7e75 19be 2dc6 f4bd fa51 e6bd
00000050: 8373 c33d 68e1 a03d 4768 fabc 8e65 d83d
00000060: e6c6 c3bd 6f8f 00be af62 3bbd bc6a 9e3c
00000070: f069 6d3e 9a06 89bd 2372 45be 62fd d83b
00000080: f030 a53e 9ffd 093e f8ef 7abe 8a95 d23d
00000090: b48b 8d3e a59f 1a3e e385 933e 4841 eabc
000000a0: bc17 9f3e 5f9c 843d 4119 6b3e 73d1 063e
000000b0: efb8 8b3e 2429 1b3e 4736 c73e a166 53bd

classifier.weight f4 [2, 12]
0.12502821 0.12049393 -0.3554685 0.000494195 0.14290713 -0.20578185 0.44744554 0.29887486
-0.28282937 -0.11970513 0.36316344 0.12203972 -0.36949816 -0.3756332 0.099936716 0.42350006
-0.3425335 0.16102153 -0.12579802 -0.30777502 0.33757457 0.33134297 -0.41786355 -0.44969013
00000000: 6507 003e 86c5 f63d f8ff b5be dd8c 013a
00000010: 3f56 123e 7ab8 52be 9517 e53e 2006 993e
00000020: 03cf 90be f727 f5bd 8ff0 b93e f6ef f93d
00000030: dd2e bdbe ff52 c0be 9fab cc3d 00d5 d83e
00000040: 8d60 afbe d4e2 243e 32d1 00be b094 9dbe
00000050: 93d6 ac3e c9a5 a93e 36f2 d5be c93d e6be

classifier.bias f4 [2]
0.045927957 0.03969245
00000000: f41e 3c3d 8d94 223d
