ckpt/best.pt (torch_old, 10105 bytes, 10 tensors)

lstm.weight_ih_l0 f4 [48, 4]
00000000: 6f09 e83d ed37 f23d 72c7 72be 25fb 813c
00000010: cea9 023e 194a 193e c33b 31be 4892 733e
00000020: de84 083f 5830 9cbe a6a5 263e 42bf 103f
00000030: b561 5fbd 66fb fe3c cb6e 1c3e 85f0 023e
00000040: 6021 043e 7d40 123f caf4 483e a212 5a3e
00000050: d9f9 7bbe 96d1 f83d 5edb dfbd 6c06 6abd
00000060: 732a f73e 0f21 9e3d 997c 193e 9350 9bbd
00000070: f709 043f ffb1 e03e 400f 3b3e 9a86 04bc
00000080: 21b4 7b3e ef8d c7bd 1b25 483e b425 863d
00000090: bb4c 943e 7801 8bbd 4ec9 dabd 5216 0e3e
000000a0: e9c5 f33e 4206 db3e 8c87 af3e ed39 12be
000000b0: 894b b43e edb0 743e df16 62bd 3767 3cbe
000000c0: a7cb eb3c 0680 923e f586 bbbd ef4e bd3e
000000d0: 9c28 0d3d 1a53 023d 6504 803e c558 c93d
000000e0: ad42 88bd 3586 23be b158 a93e 7ded b03e
000000f0: 9752 c33e 9d9c fe3c 3c11 26bc a001 16be
00000100: 179e eabe 1da1 f03e 9431 8c3d bb82 de3e
00000110: 74e4 71be aa37 1e3d 5c80 57bc caa9 993e
00000120: 4536 0b3e 6ac3 a83d 2671 8abd 72c4 9ebd
00000130: d5a3 c33d 2421 bd3d ce28 783d eb6b febc
00000140: 339f 4f3e c1d7 c33e 957b 3d3e 128f c43d
00000150: 1427 36be b3a4 713e 4c34 a83d 029b bfbd
00000160: 803c 16bf 58d0 783d dd92 dc3e db4f 573e
00000170: 02eb 64be e514 72be e1e3 863e 15d1 493e
00000180: 76db 943d 1467 db3d 746c 5d3e dfb3 8a3c
00000190: 0af9 cc3e bd88 893d 65bc 5e3e 753f 443d
000001a0: e6cb c13e 6016 9f3c 6b00 43be 46c1 bcbd
000001b0: 4d4f b23e 7ef4 0b3e 4375 c73d 64ae 0d3e
000001c0: 909b b83d 6817 e23e 4f44 673e 7e2d e73e
000001d0: 2940 49be ee51 ffbc 4551 86be ecd3 a6be
000001e0: 839d bc3e 498e da3b d621 73bd 6748 4e3e
000001f0: c295 c6be 902c 703e 7918 8c3e 59ab 183e
00000200: d93b 95bd a078 7cbe f650 2fbe bd61 a7ba
00000210: 7ac8 a4be e7eb 3a3e 2f92 0f3d 04c8 933e
00000220: 957d 0d3f 55f8 4fbe dda4 b7be 5112 3dbe
00000230: f66b a73e 424b c7bd acda c73d 65d4 8bbc
00000240: cc8b 983e cce1 25be e718 723e 872d 20be
00000250: dda2 933e 6445 33bd 18f0 953d 04ee 703e
00000260: bfd1 7a3f 144c c2be 1d0d 403e 5fa8 ec3d
00000270: 1b0d 193e 9fe5 413e 9a42 71be b850 11be
00000280: df85 eabe 30e9 503f 8758 113f b54f 093f
00000290: 1441 f6be e063 9e3e 3370 923d 2c50 093d
000002a0: 3584 443e 94aa 92be ab01 8e3e 01f2 4ebe
000002b0: 60f0 fc3e 49dd 113d 9625 743b 0f66 cc3e
000002c0: 57e5 683e b595 17bd 1a15 163e 11fb 7d3e
000002d0: f7c7 043f 21e5 ac3d 5412 e63e 04d5 d93e
000002e0: 9b1f 3ebe dd3d a43e e0fb b73e 486c 1c3e
000002f0: 15ba 4d3e 27af 83be fef8 55bd 9184 e9bd
0.11329924 0.11827073 -0.23708895 0.015866825 0.12760088 0.14969672 -0.17307954 0.2378627
0.5332774 -0.30505633 0.16274127 0.56541836 -0.05453654 0.031125735 0.15276639 0.12787063
0.12903357 0.5712965 0.1962463 0.2129617 -0.24607028 0.1214935 -0.10930513 -0.05713503
0.48274574 0.07721149 0.14988936 -0.07583728 0.51577705 0.438858 0.18267536 -0.008088732
0.24580432 -0.097438686 0.19545405 0.0655016 0.2896479 -0.067873895 -0.10682927 0.13875702
0.4761193 0.42778212 0.34283102 -0.1427991 0.3521388 0.23895617 -0.055197593 -0.18398748
0.028783632 0.286133 -0.091566004 0.36974284 0.034462556 0.031817533 0.25003353 0.098313846
-0.066533424 -0.15969165 0.3307548 0.3455619 0.3814895 0.031080538 -0.010135945 -0.14649057
-0.45823738 0.4699792 0.06845394 0.43459114 -0.23622304 0.038627304 -0.013153162 0.3001235
0.13594921 0.08240397 -0.067598626 -0.07752313 0.09552733 0.09234837 0.06058579 -0.031057319
0.20275573 0.38250545 0.18504174 0.09597601 -0.17788345 0.23597984 0.082131 -0.09355737
-0.58686066 0.060745567 0.43080798 0.21026556 -0.22355273 -0.23640783 0.26345733 0.19708665
0.07268421 0.1071302 0.21623403 0.016931472 0.40033752 0.06715534 0.21751554 0.04791208
0.37850875 0.019419849 -0.19043128 -0.092165515 0.34826127 0.13667485 0.09739163 0.13836056
0.09014046 0.44158483 0.22584651 0.45151895 -0.19653381 -0.031166997 -0.2623388 -0.3258356
0.36838922 0.0066697937 -0.05935844 0.20144807 -0.3878613 0.23454499 0.2736242 0.14909114
-0.07286806 -0.2465539 -0.17120728 -0.0012770217 -0.321842 0.18254052 0.03505152 0.28863537
0.5526975 -0.20309575 -0.35867968 -0.18464018 0.32699555 -0.09731151 0.09758505 -0.017069051
0.29794157 -0.16199416 0.23642312 -0.15642367 0.28835192 -0.043767348 0.07321185 0.23528296
0.979763 -0.37948668 0.18755002 0.11555552 0.14946406 0.1893525 -0.23560563 -0.14190948
-0.4580526 0.81605816 0.56775707 0.5363725 -0.48096526 0.30935574 0.071503066 0.033523723
0.19191058 -0.28645766 0.27735648 -0.20209505 0.49402142 0.035611425 0.0037253848 0.39921615
0.22743736 -0.037008006 0.14656487 0.24802805 0.5186762 0.0844214 0.44935858 0.4254533
-0.18566744 0.32078448 0.35934353 0.15275681 0.20090516 -0.25719568 -0.05223941 -0.11402238

lstm.weight_hh_l0 f4 [48, 12]
00000000: e607 f5be 7a34 0bbe a4c1 a83d 60bc 1fbe
00000010: 7a90 8f3e ff8a c53d 0258 f13e e934 a2be
00000020: cca1 103d d118 95be 894d 3cbd ce74 833e
00000030: 8e20 3c3d 9175 b13e da6f a13e 35ed 6c3e
00000040: 5c71 25bd 5539 aebe 8b1c 833e 056b f6bd
00000050: 72dc e63c d6cd debe 9759 79be 7693 c03e
00000060: 79b6 99be 87ae bb3e 8af0 3f3a 52a0 c73e
00000070: 40db f23e f370 53be 2e65 c63e 815a 35bd
00000080: 0506 07bf 0d8c 99bd 3955 ebbc 7960 be3d
00000090: 406a 403d e051 0a3d fae7 49be 7930 cf3d
000000a0: 0cd3 bd3e 9b99 d739 236b 053e dce2 7f3e
000000b0: 130e 92be 297f 39be d6db e1bd 0d66 a83e
000000c0: af23 fdbe d3bc 833e 3051 c73e 7ff2 073e
000000d0: 4b25 febc 1b5f aebd 5b89 bb3e ae74 f1be
000000e0: ac2a 45be ce50 c0be 80b2 093b 166f fa3e
000000f0: 306a 2dbe 848e d43d 557e b63d bb1a dd3b
00000100: 2510 5abe 2c4e 6cbd 483c b63c 695b 8ebe
00000110: 3294 66bd 4c78 193e a145 1d3e fea5 633e
00000120: c61d a8be 986f c93e 65ed 51be 0106 27be
00000130: b971 ea3c f74f 2cbe edc4 d33e 4f34 c7bd
00000140: 8d7c e3bd 60f6 873d 4736 06be c064 063e
00000150: 4c8d 7dbe d8a7 d53e ca78 6a3d 8819 053f
00000160: cd00 983e 9802 5cbe 414c 6f3e 0a4e 0cbe
00000170: 09a3 af3d 4de8 32be b8e7 5cbe 13c0 5e3e
00000180: e75d 0ebf bf53 623c c286 563c 4b28 d63e
00000190: 087f d33b ea60 78be d07b c03e ebb9 c1bd
000001a0: 0ad5 7cbd 37bb 11be eb09 18bd 8eb2 e2bd
000001b0: f664 4abe 5fc7 2dbe e4f6 6ebe eae8 ce3d
000001c0: 10fd c23e 82e1 8ebe cb59 a73e 0b97 ad3e
000001d0: 85a4 9bbe dff9 073e af24 7dbe fb67 323e
000001e0: 23a8 92bf 6aa7 fa3e 4fe9 d23e 56c2 133f
000001f0: fb3f 773d ff39 94be d06e 473f 0197 073e
00000200: ca32 93be 29eb a5bd 7ba3 953d f028 f43e
00000210: 81a7 173d 2175 c43c 0415 5abe 4c60 fcbd
00000220: 7ecb 293e 7cac 3fbe 93cf 01be dcf5 19be
00000230: bc78 133e 4ee0 543e 8d04 0cbe 7dd7 8d3e
00000240: bbd2 873d c19c 333e e170 453e 3573 573d
00000250: c0aa 4f3d f1fd 5ebd 35e1 823e 520e 1d3e
00000260: ce78 cdbd 7ad1 113e 9841 57bc 0886 483e
00000270: 4b99 66be be4a 793e 5629 8c3c f887 b83e
00000280: 49a8 e03e 74cd afbe 704d 9abd 703e e9bc
00000290: 677e 73be fdf2 a83d 2cf8 4b3e 175a ac3e
000002a0: 2608 5e3b 8d33 8c3e 190b 853e 4c75 afbd
000002b0: 7625 943e b81c 91be 6635 893e 00d0 c5bd
000002c0: db7a 843d 6ff6 d13d 068b 38be 5733 093e
000002d0: a499 20be 227d 413e 9ffa c03d 159f 063e
000002e0: 1209 3fbc 727c 30be 03a0 56be 5345 e53e
000002f0: 56e8 f43d 2e63 363e 2e56 2d3d 8214 9f3e
00000300: 0a2a 20bf 45e9 673e d352 55be 0de3 a9be
00000310: b46f acbe 1742 38bc 8497 92be 6587 f5bd
00000320: 6bd3 97be 2547 7f3e 5b9b 993e 82e0 bbbe
00000330: 3d13 b0be b12b b13b d671 3fbd 71fc 9ebd
00000340: 827a 07be 7d4c d43d 6fe1 9dbe e4ec 82be
00000350: 1231 813d 0bb3 bb3d 1ad8 cabc 4bdf 73be
00000360: 1d72 ca3d 87c8 9fbd 6f2f 2bbe b089 2bbd
00000370: ec9a 11be f752 e03d b750 ad3e 76c0 c63d
00000380: 6c02 343d e80d 403c bc5c 4b3e 010c af3e
00000390: 9a8f 8fbe 3316 4abb 6d96 b4bd 303f 283d
000003a0: 8ce6 2ebc 3bc3 98be 88c5 d03d fe4d 41be
000003b0: 3549 ce3d 54ee 77be a4b9 163e 0176 29be
000003c0: 3dd9 84be c7a3 e33e e4ec e2bd 9c3a 213e
000003d0: 3d7d cf3d d50b 5cbd 2a90 083b 482f 39be
000003e0: a124 1dbe 9a26 343e 014b 6cbe 481d d13d
000003f0: 5986 e2bd 4ad8 7b3c 92cc 17be bd23 8cbe
-0.4785759 -0.13594237 0.08240059 -0.15599203 0.28039914 0.09645652 0.47137457 -0.31680992
0.03531055 -0.29120496 -0.04597238 0.25675052 0.045929484 0.3466001 0.31530648 0.23137362
-0.04039131 -0.34028116 0.25607714 -0.12032131 0.028181288 -0.43516415 -0.24350582 0.37612504
-0.30022028 0.3665659 0.0007321915 0.38989502 0.474329 -0.20648555 0.3874907 -0.044275764
-0.5274356 -0.07497416 -0.02872716 0.092957444 0.046976328 0.03376949 -0.19717398 0.10116667
0.37075078 0.0004112244 0.1302915 0.24988884 -0.28526363 -0.18114914 -0.110282585 0.3289036
-0.49441287 0.2573 0.3892913 0.13276099 -0.031023642 -0.08514234 0.3662823 -0.47159332
-0.1925456 -0.3756165 0.0021010935 0.48912877 -0.16935039 0.10378745 0.08910815 0.0067475713
-0.21295221 -0.057691738 0.022245541 -0.27804115 -0.056293674 0.14987296 0.15358593 0.2223129
-0.32835215 0.39342952 -0.20500715 -0.16310884 0.02861868 -0.16827379 0.4136118 -0.09726774
-0.111077406 0.06638789 -0.13106643 0.1312437 -0.24760932 0.41729617 0.0572441 0.5199208
0.2968811 -0.21485364 0.23368932 -0.13701645 0.08576018 -0.17471428 -0.21572769 0.21752958
-0.55612034 0.013813912 0.013093652 0.41827616 0.0064543523 -0.2425572 0.3759446 -0.09459289
-0.061726607 -0.14231573 -0.037118834 -0.11069213 -0.19765076 -0.16970585 -0.23336369 0.101030186
0.38083696 -0.27906424 0.32685694 0.339043 -0.30398956 0.13278912 -0.24721025 0.17422478
-1.1457561 0.48955852 0.41193625 0.5771841 0.06036375 -0.28950498 0.7790346 0.13241197
-0.28749686 -0.08101494 0.07306572 0.47687483 0.03702498 0.023981633 -0.2129708 -0.12323055
0.16581532 -0.18718141 -0.1267684 -0.15035194 0.14401525 0.2078869 -0.13673611 0.27703467
0.066319905 0.17540266 0.19281341 0.052600104 0.05069995 -0.054441396 0.25562444 0.15337494
-0.10032807 0.14240065 -0.013138197 0.19582379 -0.22519414 0.24344918 0.017109554 0.36041236
0.4387839 -0.34336436 -0.07534301 -0.028472155 -0.23778687 0.08249471 0.19918889 0.33662483
0.0033879369 0.2738308 0.2598503 -0.085672945 0.2893483 -0.28342223 0.26798552 -0.096588135
0.06468745 0.102520816 -0.18021783 0.13398491 -0.15683609 0.1889539 0.09422802 0.13146622
-0.011659877 -0.17234972 -0.20959477 0.44779453 0.11958377 0.17811272 0.042318515 0.31070334
-0.62564147 0.22647579 -0.20832376 -0.33181038 -0.33678973 -0.011246226 -0.28631222 -0.11988715
-0.29653487 0.24929483 0.3000134 -0.36694723 -0.34389678 0.0054068197 -0.04673942 -0.07762993
-0.13230327 0.103661515 -0.30836055 -0.25571358 0.063081875 0.09165009 -0.024761248 -0.23815648
0.09885047 -0.078019194 -0.16717313 -0.041879356 -0.14219254 0.10953324 0.33850643 0.09704678
0.043947622 0.0117220655 0.19859594 0.34188846 -0.28039247 -0.0030835986 -0.08817754 0.041075885
-0.010675084 -0.2983645 0.10193926 -0.18877408 0.10072557 -0.24212009 0.14719254 -0.16548921
-0.2594699 0.4446089 -0.110803396 0.15745014 0.10131309 -0.05372222 0.0020837882 -0.18084443
-0.15346004 0.1759285 -0.23075487 0.10210663 -0.11060781 0.015371392 -0.14824131 -0.27371016

lstm.bias_ih_l0 f4 [48]
00000000: e3d2 403e 4510 643d e489 fc3e bdef 433e
00000010: 262a e13e d52f 1e3e 5cd7 b43c bbb9 683e
00000020: 211f b73e c1fb ce3e 78f8 313d d4b0 723e
00000030: e6ab a53e 5967 853d 2021 29be 195a bc3e
00000040: aa9d ca3e 6723 2bbe 2801 143e ef43 9f3d
00000050: 91a4 583e 70c0 a03d 4751 2abe 2802 183e
00000060: 0169 e0bd 6265 593e 87e4 f5bb 2aa3 013e
00000070: a8bb 873e 4982 56be db26 e13c 3273 0fbd
00000080: 24b0 a8be 296d 6a3e d7f3 80bd ee79 5d3e
00000090: a4f7 f93d 04e8 963e 9f90 1f3f 91d8 183c
000000a0: 57a7 093f 63aa b4bd 172f 82bc 4e16 df3d
000000b0: 8bee d0bc 11fb a53e a059 df3e c609 843e
0.18830447 0.05567958 0.49323952 0.19134422 0.4397747 0.15447934 0.022075348 0.227271
0.35765937 0.40426448 0.04344985 0.23700267 0.3235771 0.065138526 -0.16516542 0.3678749
0.39573413 -0.16712724 0.14453566 0.07776629 0.21156527 0.078492045 -0.16632567 0.14844573
-0.10957528 0.2123008 -0.007504049 0.12659898 0.26510358 -0.20948137 0.027484348 -0.03502197
-0.32946885 0.22893204 -0.06296509 0.21628544 0.12205437 0.2947389 0.6233005 0.009328977
0.53770965 -0.08821561 -0.015891595 0.10892926 -0.025504371 0.3241811 0.43623066 0.25788707

lstm.bias_hh_l0 f4 [48]
00000000: 8baf 563e 1637 19bd 53ca ac3e 8761 56bd
00000010: be7f aa3e b635 893e 6e14 4d3e 1c12 b33e
00000020: 1890 b63e 8ea4 bd3e c860 173e 1d1c 1c3e
00000030: ef71 c3bd 27bb eabb 24cc 6c3d 5c78 a43e
00000040: 5b0a a03c 74e5 553c e3d7 193d 77d6 07be
00000050: 1105 debc 11c5 9bbd ee4c 55ba c719 123e
00000060: c934 88be a76d 203d 0157 91be 56a2 cdbd
00000070: e258 753e 169f 65be 9f45 b3bd ac35 9d3e
00000080: c44f 9fbe ab7f 843c 157c 6fbe 1fca 4bbd
00000090: 05bb 373d 4222 a7bd ad69 8f3e 9331 6bbd
000000a0: d806 803e d282 593e 6d4c 453d c0c7 a63d
000000b0: 9d0d ff3d ec6f b73e 4d87 a83e df87 af3e
0.20965402 -0.03740605 0.3374811 -0.052339103 0.33300585 0.2679879 0.20027325 0.34974754
0.3565681 0.37039608 0.14783013 0.152451 -0.095432155 -0.0071634236 0.05781187 0.32123077
0.019536188 0.013055194 0.0375594 -0.13265406 -0.027102025 -0.07605947 -0.00081367686 0.14267646
-0.26602772 0.039167073 -0.2838669 -0.10040729 0.23959687 -0.22423968 -0.087535135 0.3070501
-0.31115544 0.016174158 -0.23387177 -0.049753305 0.04485609 -0.08160831 0.28010312 -0.057420325
0.2500522 0.2124131 0.04816859 0.08143568 0.124537684 0.35827577 0.32915726 0.3428335

lstm.weight_ih_l1 f4 [48, 12]
00000000: a80f 18bf 4552 d63e d65d 543f eada ce3e
00000010: 3df9 51bd ee63 2abd cc99 fb3e 0698 55bf
00000020: 5b97 99be 273e ffbe 481b f53e 18bf e73e
00000030: 3f60 ddbe 7d71 283f 72af 013f b54c 1a3f
00000040: 5c32 e3bd 7586 02be 0cb4 df3e 2fc0 0dbe
00000050: 5c95 12bf 38ea 9bbe ad8d c6b9 cbe8 1b3f
00000060: df2a 973d 41a4 e03e 4bca 49bf 5413 5b3e
00000070: e6ee 8e3f 3950 94be adc9 46be 7f4c 9d3f
00000080: 942e 9fbe 7410 0b3f 121b c0bf 2050 513d
00000090: 68db d2be fab8 623e a44f 97be 6d0f f93d
000000a0: 4681 af3e 67e6 74be 81e5 c4bc 4854 c03e
000000b0: 2315 3bbe 9e62 1abe 53f1 eabe 80c7 813e
000000c0: ea14 72be dcad 9f3e 728c ca3d 16e9 67bc
000000d0: bc23 793e 0ae1 963d 5b5b 983e a250 143d
000000e0: 4eaa adbc 791b 89be e1cc c73c 496c cc3d
000000f0: 50cb 4dbe 8cdd 45bc 31a1 713e 99b1 c23e
00000100: bbf1 853d da36 cc3c 6ed0 fc3e 1e35 52bd
00000110: 20bd 5cbe ff24 d9be bd3a 0c3e ad41 033f
00000120: bd46 a5bc bb66 1dbc 1ba4 babe 1d19 bc3e
00000130: cdba 413f c885 1abe a070 6abe ebc5 663f
00000140: c428 91be 9a54 693e f9e8 83bf 5137 d7bc
00000150: b6e1 973e 93e1 d13c c927 073e 8179 c9bd
00000160: bdb3 813e a155 a7be 0449 b43e a4ae aa3e
00000170: 2306 c33d 5fda 38be 135f e0bd 7187 923e
00000180: b68d 89bc fff8 ae3d 1b5c b53e 7d09 b73e
00000190: 46aa 83bd 20c6 b6be 563e 4bbd a3c8 c1bd
000001a0: bbe6 ff3d 6169 c9bd 59ea 8e3c d9bf 963e
000001b0: bcaf ecbe 772b 123f b8cb 41bf e961 7f3e
000001c0: c515 313f 4cf2 13bf a02e 73bd 7a19 5b3f
000001d0: 5e7c d0be abad 8e3e 549f 66bf 3319 573d
000001e0: 3a53 cebe 46f5 bc3e 4baf bf3e dd56 343e
000001f0: d42a 993d 7021 bebe 9c0f d83d 1e9c 92bd
00000200: 56e2 ddbe 1d3a 94be c79f 843d 6e57 0b3f
00000210: 06e8 83be 1318 2fbe bfd2 963d 049c 26be
00000220: dee8 b1bd add3 453e 1111 063e 965a 84bd
00000230: 1db5 66be 8d8c bfbd 10f4 abbe f077 883c
00000240: eff7 02be 61ed b33e 0e6e f33d 6a8c 51be
00000250: 5fc2 50be 17b3 d4be 3447 393e 1187 ebbd
00000260: b7fb 293e 8705 98be 2e79 47bc 691d 243e
00000270: c620 8dbe 608b 87bd 9312 21bf 9186 cebd
00000280: 2979 823e bfb0 9ebe c0ae 8bbe 89b9 1d3f
00000290: 41d0 bcbe 4b5c 02be 9fde c9be fed5 6ebd
000002a0: b1c8 d7be 7099 92be 1539 86bf 7597 a8bd
000002b0: 6443 133f 7107 e5bd bec5 adbe fbb6 6c3f
000002c0: 9fc2 383e 3e67 8a3e 974c d3be 28aa 22be
000002d0: b027 693e 10d3 103e bca2 48bf ddc7 d3be
000002e0: 6ea9 433e 95a3 bf3d f85b 06be 8194 d43e
000002f0: e627 973d 650f 783d 3483 fbbe a44c 21be
00000300: 0728 cbbe a0ea e63e c011 8b3d 1716 bd3e
00000310: 706e 0abd 017b c6be a53b de3e 6b4a 963e
00000320: cde9 efbe cb8d 8cbe 0bd0 d23d 1e53 f83e
00000330: 8bc4 203e f187 7abc ba55 903d 43d8 4f3e
00000340: cba3 17be 189b b63d a37e 5c3e 2724 dd3e
00000350: 97f6 eabd 83ed 403e 3f69 3bbc 25ba 6bbd
00000360: d384 b7bc 0bc7 993d 9629 febe 8edb 00be
00000370: 8abe 443d f951 99bc cddf fc3d 15ef c63e
00000380: dfdc 8f3e 69cb 65bc 0b6e 1a3d 77f7 b3be
00000390: d649 2cbe 7e7e 543e bb3f dabe e86a 703d
000003a0: 90fa d73e e764 073e 2038 b53e 6c5c 833e
000003b0: 8418 e23d 79b2 9a3e 491a bbbd 29ee a03d
000003c0: 99f7 a63e cdf7 2f3e 58cf b1be 3b60 4fbd
000003d0: 188b 2d3e 4578 67be afb5 3ebd ac56 733e
000003e0: 825e 8abe 52ee 15be dc3f 35be ee0c c4bd
000003f0: bcc1 42be dc5d a1bd 5771 52bf 6d6d c4bb
-0.5939889 0.41859642 0.8295568 0.40401393 -0.051263083 -0.041599207 0.49140775 -0.83435094
-0.29998288 -0.49852106 0.47872376 0.4526298 -0.43237492 0.6579817 0.50658333 0.60273296
-0.1109359 -0.12746604 0.43692052 -0.13842843 -0.57259154 -0.30452132 -0.0003787106 0.6090209
0.07381224 0.43875316 -0.788243 0.21394092 1.1166656 -0.28967455 -0.1941287 1.228897
-0.31090224 0.5432198 -1.5008261 0.051101804 -0.4118302 0.22140875 -0.29552948 0.12161145
0.34278315 -0.23916017 -0.024035217 0.37564301 -0.18269782 -0.15076682 -0.4588724 0.2534752
-0.2364079 0.31187332 0.09890069 -0.014154693 0.24330038 0.073671415 0.297572 0.03620971
-0.021199372 -0.26778772 0.024389686 0.09981591 -0.20097089 -0.012076747 0.23596646 0.3802612
0.06540247 0.024928499 0.4937777 -0.051320188 -0.2155652 -0.42411038 0.13694282 0.5127209
-0.020175332 -0.009607012 -0.36453328 0.3673791 0.7567566 -0.15090096 -0.22894526 0.9014575
-0.28351414 0.22786179 -1.0305473 -0.026271494 0.2966439 0.025620257 0.1319877 -0.09837628
0.25332442 -0.32682517 0.35211957 0.33336365 0.09522655 -0.18052052 -0.10955634 0.2861896
-0.016791206 0.08543586 0.35421833 0.35749426 -0.064289615 -0.35698032 -0.049619995 -0.094620965
0.1249518 -0.098345526 0.01744573 0.29443243 -0.46227825 0.5709757 -0.75701475 0.24939694
0.6917384 -0.5779159 -0.059370637 0.8558575 -0.40719885 0.27866873 -0.90086865 0.052514266
-0.40297872 0.3690588 0.37438425 0.1761126 0.07478872 -0.37134886 0.10549852 -0.07158683
-0.43336743 -0.28950587 0.064757876 0.5443028 -0.25762957 -0.17099027 0.073644154 -0.16270453
-0.08686994 0.19319029 0.13092448 -0.064625904 -0.22530027 -0.0935298 -0.33584642 0.016658753
-0.12789892 0.35142043 0.11886226 -0.2046372 -0.20386647 -0.41542885 0.18093568 -0.11500371
0.16599928 -0.29691717 -0.012174888 0.16026844 -0.27564067 -0.066183805 -0.62918967 -0.1008426
0.25483063 -0.30994222 -0.2728176 0.6161123 -0.36877635 -0.1273052 -0.3942766 -0.058309548
-0.42145303 -0.2863269 -1.048617 -0.08232013 0.57524705 -0.1118306 -0.33939928 0.92466706
0.18042992 0.27031893 -0.4126937 -0.15885222 0.22769046 0.14143014 -0.7837331 -0.4136342
0.19107601 0.09357373 -0.13121021 0.4151955 0.07380657 0.060561556 -0.49123538 -0.15751892
-0.39678976 0.4510088 0.06790495 0.36930916 -0.033796728 -0.3876572 0.4340488 0.2935365
-0.46858063 -0.2745193 0.10293587 0.48500913 0.15699975 -0.0152912 0.07047601 0.20297341
-0.14808576 0.089163005 0.21532683 0.43191645 -0.114728145 0.18840604 -0.011438667 -0.057550568
-0.022402203 0.075086676 -0.49641103 -0.12583753 0.048033275 -0.018715845 0.12347374 0.3885428
0.280982 -0.014025548 0.0377026 -0.35149738 -0.16825041 0.20751378 -0.42626747 0.058695704
0.42183352 0.13222085 0.35394382 0.2565645 0.11039832 0.3021429 -0.09135873 0.078579254
0.32610777 0.17184372 -0.34728503 -0.050628882 0.16947591 -0.22604473 -0.046559986 0.23763531
-0.2702523 -0.14641693 -0.17700142 -0.09572779 -0.19019216 -0.078792304 -0.8220419 -0.00599449

lstm.weight_hh_l1 f4 [48, 12]
00000000: bccb cf3e 8c4c 063e 3f86 52be 5621 f2bd
00000010: faa2 cfbe ac46 89be 33c9 d13e 4663 a9be
00000020: 2f18 97be 70ad 233e 51c8 46be e088 acbd
00000030: 3242 ca3e 963a c63e b40c fb3d ede0 febd
00000040: 4c35 ffbe dc1e 2f3e 53b7 0e3e 8113 81be
00000050: 4a87 2c3e 0e5d a2be a6d7 dabd 272c edbd
00000060: 8f01 efbe 123b 903e c07c 573f 2988 3e3e
00000070: 45ba 823e 2535 213f 4354 14bf a43c e03d
00000080: 2471 b4bd ff51 22bf 9092 343e fb2b e6bc
00000090: c569 d33c 7fda ef3e 6db9 f43e a552 4a3d
000000a0: 7b03 8cbd 309c ac3e 59fa abbc 4ce6 cfbd
000000b0: db60 1d3e 5929 1abe 9478 b83e c9d1 efbe
000000c0: 8792 993d d92a 2fbd d97d 03be 48ac 5cbe
000000d0: 7baf e83c ed0e 13be 88dd 84be 3e3b e5be
000000e0: 577c 453e 3297 273e e206 d9bc abb2 c43d
000000f0: 7486 3a3e a12c e0bc e16b 623e 3b04 143e
00000100: 0a7e f2be 7dc3 193e c785 aa3e b949 85be
00000110: 48f6 093e 18dd 6d3e 590d f23d cdae 25be
00000120: 6c56 70be 4497 413e 9441 5a3f 0bb1 fd3e
00000130: bf06 9b3d 733b 853e 0801 d4bd 2682 dfbc
00000140: 4fad f4bd 5c40 0bbf 3c5a cf3e 389e 2f3e
00000150: d3e0 7c3d bd5c 823e 21fb 833c 3f09 0f3e
00000160: 4b43 acbe 4977 8c3d 021c e83d 503b 6cbe
00000170: be93 a2be cdf5 9ebe 815f 753e 6fcb 94bd
00000180: 1e57 ab3e f648 bd3b fb92 d73e 9788 e8bd
00000190: a51c ab3c f49d 09be 7ef0 96be 80ff 1e3e
000001a0: d034 3d3e 210e b53d 7545 943e 3f0a 89be
000001b0: ce4c aebe 43ac 6abe 5e8f 133f fa53 b73e
000001c0: 5be5 f0bd 38a7 dd3e 9bac ebbe 26d5 17be
000001d0: 2c7f 053d fef0 08bf 0a32 7d3e 2fce 7abd
000001e0: 57a0 d83e d486 973e 3156 c4bd 02dd 47be
000001f0: 8765 98be 2a1c 94bc 6db6 943e a4fd fe3c
00000200: e8f0 553e b180 5bbd 22d4 55be 4dda 6ebe
00000210: 48b0 7dbe 482f 783e 4c4b 863c 5dcc 863e
00000220: 47ba 8ebe 6d0a 0f3e 9d28 b03e 93ff 2ebe
00000230: 94d3 b3be 659d 673e 66fd 963d 46d5 e6be
00000240: a654 d23e de39 7a3e 6161 80be e7bb b93c
00000250: 44fd 02bd 75d9 23be 94a4 973c 5bd5 a0bd
00000260: 0ea5 723e 8214 cfbd a3b0 2ebe 56c7 7c3e
00000270: a6ae 50be 8571 95be d5e3 d03e 0ab3 783e
00000280: 36ae 063e ee3f 5e3e f398 0d3e 5d6c acbd
00000290: 36d9 ab3c 7f2b ecbe ed9d 91bd 9398 873e
000002a0: 82e0 163e d04c cdbc 00b2 74bd 02e5 c8be
000002b0: ba97 1e3e 3c5e 7abe e41a 88be c5de ac3e
000002c0: 1162 ec3e 08b6 9b3e bffb a9be 5b60 29bd
000002d0: f091 8a3c 6401 4c3e 72e6 023e 2bb9 213e
000002e0: df44 9f3c c529 9cbe 6850 633e a36f 613d
000002f0: 0aa1 013d f9b4 1abe 9fdf 143e aa1f 043e
00000300: 0269 353e eac4 a03d 21de 743e 0c27 6e3e
00000310: 9f15 eabd 97ae 3dbe bde4 283e fa7e 21be
00000320: 51ea 22be 0674 cfbe 062e ac3e 8dfd 963c
00000330: aebe cb3e 77be 3abe aa8d f33c a160 a33e
00000340: 76da 303e 3b92 48be be24 ce3d b8b9 913e
00000350: 45aa cfbd b55d 323e e997 403e f8f4 643e
00000360: 49bd 62bd a2b6 08be 72fa 353e 712e cdbe
00000370: 7651 18be f3e3 59be 3dac 5fbe 0b4e 043e
00000380: 497d 743e f6fe 17be 6980 163e cbbe 1b3e
00000390: 8f2b a3be ad0e 923e 52ad 923e 159c 743e
000003a0: 08d8 a03c 102e bb3e 32e2 213d cc98 213d
000003b0: d159 253e 92f0 37bc fd2b bf3e 16b0 ae3d
000003c0: 79e4 97bd 4038 44be 82ee 313e 0ea7 f83b
000003d0: a706 993d 8bd2 a03e 01f1 3f3d 7614 1dbe
000003e0: d73c 66be b048 b8be aa64 75be 3a82 ecbd
000003f0: a63c 163d fe7a 8ebe 9cc4 80be 0a1a d1be
0.40585124 0.13115138 -0.20559023 -0.118227646 -0.4055403 -0.2681173 0.40973815 -0.33083552
-0.29510638 0.1598413 -0.19412352 -0.08424544 0.39503628 0.38716573 0.12258282 -0.12445245
-0.4984535 0.17101616 0.1393712 -0.25210193 0.16848484 -0.3171162 -0.10685663 -0.11580687
-0.46680877 0.28170067 0.8417473 0.18606628 0.25532737 0.6297172 -0.57941073 0.10949066
-0.08810642 -0.63406366 0.17634034 -0.028097143 0.02580727 0.46846387 0.4779772 0.049395222
-0.06836601 0.33712912 -0.020993399 -0.101513475 0.15368979 -0.15054835 0.36029494 -0.4683974
0.07498651 -0.042765472 -0.12840976 -0.21550095 0.028403988 -0.14361162 -0.25950265 -0.4477176
0.19285713 0.1636627 -0.02649254 0.09604391 0.18215352 -0.02736503 0.22111465 0.14454739
-0.47361785 0.15015979 0.3330519 -0.26032808 0.13472855 0.23228872 0.11818952 -0.16179962
-0.23470467 0.1890536 0.85256314 0.49549136 0.07569646 0.2602192 -0.10351759 -0.02728374
-0.119471185 -0.5439508 0.4049853 0.171502 0.061737847 0.2546138 0.016110959 0.13968371
-0.3364509 0.06858689 0.11333467 -0.23069501 -0.31753343 -0.31046906 0.23962213 -0.072653644
0.33464903 0.00577652 0.42104325 -0.113541774 0.020887682 -0.1343916 -0.29480356 0.15527153
0.18477178 0.088405855 0.28959242 -0.2676563 -0.34042972 -0.22917275 0.57640636 0.35806257
-0.11762496 0.4329164 -0.46030125 -0.14827403 0.032591984 -0.53492725 0.2472612 -0.06123179
0.4230983 0.29595053 -0.09586752 -0.19517902 -0.2976496 -0.018079836 0.2904543 0.031126805
0.2089268 -0.053589527 -0.20881703 -0.23325463 -0.24774277 0.24236786 0.016393326 0.26327792
-0.27876493 0.13968821 0.34405985 -0.17089681 -0.3512236 0.22618635 0.07372551 -0.4508459
0.41080207 0.24436137 -0.25074294 0.022672607 -0.031979814 -0.16000922 0.018511094 -0.07853194
0.23695776 -0.101113334 -0.17059569 0.24685416 -0.20379123 -0.2918817 0.40798822 0.24287048
0.13152394 0.21704075 0.13827877 -0.08419106 0.020977598 -0.46126935 -0.071102 0.26483592
0.1473408 -0.025061041 -0.059740067 -0.3923722 0.15487567 -0.2445001 -0.26583016 0.3376371
0.4616857 0.30412316 -0.3319988 -0.041351657 0.016915292 0.19922405 0.1278322 0.15793292
0.01944202 -0.30500618 0.22198641 0.055038106 0.03164772 -0.15108098 0.1453843 0.12902704
0.17715839 0.078500584 0.2391286 0.23257083 -0.11429905 -0.18523632 0.16493507 -0.15771094
-0.15909697 -0.40518206 0.33628863 0.01843145 0.39793915 -0.18236719 0.029730637 0.3190966
0.17270836 -0.19587032 0.10065602 0.28462005 -0.10139898 0.17418559 0.18807949 0.22359073
-0.055356298 -0.13350919 0.17771319 -0.40074494 -0.14874825 -0.21278362 -0.21843047 0.12920396
0.23875917 -0.14843354 0.14697422 0.152095 -0.3186917 0.28526822 0.28647858 0.23887666
0.019634262 0.3655858 0.039522357 0.03945236 0.16147543 -0.01122679 0.37338248 0.085296795
-0.074166246 -0.19162083 0.1737614 0.007588274 0.07471972 0.31410632 0.0468607 -0.15339836
-0.22484146 -0.35992956 -0.23964182 -0.11548276 0.036678933 -0.2782821 -0.2515 -0.4084018

lstm.bias_ih_l1 f4 [48]
00000000: fc0a 983e 161d 653d 548c 553e 7623 bc3e
00000010: a1f5 3fbd 3570 ea3d 43ec 463e 6af0 af3e
00000020: 27d0 1ebe 0188 4b3f bcb5 df3e 5dbb 96be
00000030: 38d5 b73d bcfe e63d b5a4 943e 36a7 63be
00000040: 063e d1bd 68a8 92bd 921b 8e3e 80ed 25be
00000050: b025 87be dcb0 a03c 7cea 0dbe 5013 263e
00000060: 1c35 15be 8032 91bd b758 453e 1de0 de3d
00000070: 0622 1fbe 0be7 8e3e 6f58 133d bf13 14be
00000080: f0dc b2bd b95c adbe 6b64 36be b22f 04be
00000090: 5337 943d bcf1 d53e d8f1 ff3e 8d4c 713d
000000a0: 824f 05bc a4c6 e4bd e65e 0d3e 5344 00be
000000b0: dfe6 01bd b6cb 203f 2dac 873e 7cf9 55bd
0.2969588 0.05593594 0.20854312 0.36745805 -0.04686511 0.11447183 0.19426064 0.3436311
-0.15509091 0.795044 0.4369334 -0.29439822 0.08976215 0.112790555 0.29031911 -0.22231755
-0.10216908 -0.07161027 0.2775541 -0.1620388 -0.2639594 0.019615583 -0.1385898 0.16218305
-0.14571041 -0.0708971 0.19272123 0.1088259 -0.15540323 0.27910647 0.03597301 -0.14460658
-0.08733547 -0.33859804 -0.17811744 -0.1290882 0.07237115 0.4178599 0.499892 0.058910895
-0.008136632 -0.111707 0.13805732 -0.12526064 -0.031714316 0.6281084 0.26498547 -0.05223988

lstm.bias_hh_l1 f4 [48]
00000000: 473c 213e 09c0 063f 1fc7 ff3e c1e1 573e
00000010: 6068 14be 644b ba3e edfa 1c3e 4468 633e
00000020: ef39 9d3e 6312 333f 19ec 10bd 29cb dbbd
00000030: 7cf9 28be e4c0 913e 1968 963e 773e 673d
00000040: 6bdc e73e 9655 67be 011b ea3d 237d 0a3e
00000050: 1da2 d1bd c486 a6bd c738 683e 7f51 963e
00000060: eb37 89ba 4004 143e 2a84 633e dc20 003d
00000070: a021 5dbc c404 823d 0805 2cbe 665e 5c3d
00000080: ab20 103e ffd1 d0be 7092 173e 1410 0bbc
00000090: a747 1fbd a8ae 953e 6b58 4c3e 9a0e a63e
000000a0: 107a 353e 28f9 8d3e 1eb8 65bb 73dc 953e
000000b0: 287f babd f6ec e03e f872 8cbd 7426 4bbd
0.1574565 0.5263677 0.49956605 0.21082212 -0.14492941 0.36385643 0.15330096 0.22207743
0.30708262 0.6994993 -0.03538141 -0.10732109 -0.1650142 0.28467476 0.29376295 0.056456055
0.45285353 -0.22591242 0.11430932 0.13524298 -0.10235999 -0.08131173 0.22677909 0.29359052
-0.0010468935 0.14454746 0.22218385 0.031281337 -0.013496786 0.06348565 -0.16798794 0.053800963
0.14074962 -0.40785214 0.14801955 -0.00848772 -0.038886692 0.29234815 0.19955604 0.32433015
0.17722344 0.27729154 -0.003505237 0.29269752 -0.091062844 0.43930787 -0.06857866 -0.04959722

classifier.weight f4 [2, 12]
00000000: a575 7fbf 6cfc 533d f15b a7bf e11d 12bf
00000010: a75e 4dbd cf6a 273e 3bba 3c3f b78e 3abe
00000020: 35aa a8be 2db2 993f 85ca f93e aa5f afbd
00000030: 491d 603f 62b2 7cbe d25c a83f e7b4 0f3f
00000040: 09e6 d7be bb73 8cbe 9eb6 4cbf f7d0 41be
00000050: b5d9 af3e fc7d 82bf 92d0 0abf be01 80be
-0.99788886 0.0517544 -1.3074933 -0.5707684 -0.050139096 0.16349338 0.73721665 -0.18218504
-0.32942358 1.20075 0.48787323 -0.08563168 0.87544686 -0.24677423 1.3153327 0.5613541
-0.4216769 -0.27432045 -0.7996615 -0.1892737 0.34345785 -1.0194697 -0.54224503 -0.2500133

classifier.bias f4 [2]
00000000: 387c 6fbe 62f6 0d3f
-0.2338723 0.55454075
