ckpt/exactly_three_10_1000_pts.pt (torch_old, 10105 bytes, 10 tensors)

lstm.weight_ih_l0 f4 [48, 4]
0	0xbbde793b	-0.006789354
1	0x3e0c3273	0.1369112
2	0xbe1bdf7c	-0.15221971
3	0x3e83948b	0.25699267
4	0xbc97bdba	-0.018523086
5	0x3e8fd2ae	0.28090423
6	0xbe161c31	-0.14659192
7	0x3e785bc5	0.24253757
8	0x3e0e7e8d	0.13915463
9	0x3da42001	0.08013917
10	0x3e6dc510	0.23219705
11	0xbd8bd626	-0.06827955
12	0xbc362c8e	-0.011119021
13	0x3e28d1bf	0.16486262
14	0xbbe79a14	-0.007067928
15	0x3e9723fc	0.2951964
16	0x3de0213a	0.109438375
17	0x3ea98d88	0.33115792
18	0x3de68b67	0.11257058
19	0xbdfe83d4	-0.12427488
20	0xbe825ac1	-0.25459865
21	0xbd87c9df	-0.06630301
22	0xbdae7fe6	-0.085204884
23	0x3d40d14c	0.0470746
24	0x3ebaa1ce	0.36451572
25	0x3ebfdf4a	0.37475044
26	0xbd6460ec	-0.055756494
27	0x3e68a179	0.22717847
28	0x3b20dfde	0.0024547498
29	0xbdc91928	-0.09819251
30	0xbd1e8be5	-0.038707633
31	0xbd869802	-0.06571962
32	0x3e2fcf86	0.17169008
33	0x3e41114d	0.18854256
34	0x3eb1c55c	0.34720886
35	0x3e2bd1b2	0.16779211
36	0x3e81f633	0.25383148
37	0x3e9edb7f	0.31026837
38	0x3e9dcdf1	0.30821183
39	0x3d00367e	0.031301968
40	0x3e92d140	0.2867527
41	0xbd4e8682	-0.050421245
42	0x3cb4d3ec	0.022073708
43	0x3e4885fb	0.1958236
44	0xbda7272e	-0.0816177
45	0x3e904fc1	0.28185847
46	0xbe3b8622	-0.18312886
47	0x3e5b71c3	0.21430115
48	0xbe87ebb8	-0.26547027
49	0x3e470cfd	0.19438548
50	0x3eb081fc	0.3447417
51	0x3eb3a2ca	0.35085136
52	0xbe23d9d5	-0.16001065
53	0x3eb70678	0.35747123
54	0xbd27bef1	-0.04095358
55	0x3e30a305	0.17249687
56	0x3d08b21c	0.033372983
57	0x3e93ced2	0.2886873
58	0x3e977bbd	0.29586592
59	0x3e470e18	0.1943897
60	0xbe2ebb32	-0.17063597
61	0x3d8cc787	0.06873994
62	0x3d5932a8	0.053026825
63	0x3dcc8375	0.09986011
64	0xbdbd9a89	-0.09257991
65	0x3b586610	0.0033019818
66	0x3e53c039	0.20678796
67	0xbe410ecd	-0.18853302
68	0x3d8b1db0	0.06792772
69	0x3d8a6894	0.06758228
70	0xbd8d62b9	-0.069035955
71	0x3e89fe34	0.26951754
72	0xbe51f970	-0.20505309
73	0xbdfdaa4b	-0.123859964
74	0xbdabca0f	-0.08388149
75	0x3e96da66	0.294635
76	0x3ec1dc94	0.378636
77	0x3ddc1e51	0.1074797
78	0xbe2c2d38	-0.16814125
79	0x3d552ab1	0.052042667
80	0x3d5684bb	0.052372675
81	0x3ea1ab71	0.31576112
82	0x3eb04bee	0.3443293
83	0x3e9af66e	0.30266136
84	0x3e4c8cd1	0.19975592
85	0xbd0c987a	-0.0343251
86	0x3eb0edf6	0.3455655
87	0xbe1b15d0	-0.1514504
88	0xbe473762	-0.1945472
89	0x3dd17a5f	0.102284186
90	0x3ed4a9b4	0.41535723
91	0x3e72639f	0.23670815
92	0x3c8b4301	0.016999723
93	0x3e084d49	0.13310732
94	0x3da7e8ff	0.08198737
95	0x3eb65c9b	0.35617527
96	0x3e1cb7d5	0.15304501
97	0xbe7b0204	-0.24512488
98	0x3e1877be	0.14889428
99	0xbd3a37a6	-0.045463227
100	0xbd068a90	-0.032846987
101	0x3e95449a	0.291539
102	0xbe4313a1	-0.19050457
103	0xbe057aab	-0.13035075
104	0xbe36e252	-0.17859772
105	0x3e06c9fd	0.1316299
106	0xbdeeed4f	-0.11666357
107	0x3e05e470	0.13075423
108	0x3dd572d2	0.10422291
109	0x3e21cac5	0.15800007
110	0x3e6d4024	0.23168999
111	0x3d3469e3	0.044046294
112	0xbe27eeff	-0.16399764
113	0xbe1f59d1	-0.15561606
114	0xbdfab892	-0.12242235
115	0x3dab99fe	0.08378981
116	0xbcd40731	-0.025882335
117	0x3d502c40	0.05082345
118	0xbd99a8f1	-0.07502926
119	0x3daf6fd5	0.08566252
120	0x3e801f4c	0.25023878
121	0x3e4053bd	0.18781944
122	0xbe7a1f2b	-0.24425952
123	0xbe17bb08	-0.1481744
124	0x3e3701e3	0.17871813
125	0xbdf3542d	-0.1188129
126	0x3e9602e0	0.29299068
127	0x3e83ea6e	0.25764793
128	0xbe87da78	-0.26533866
129	0xbe7dd511	-0.2478831
130	0xbed5b5a9	-0.41740158
131	0xbda0348c	-0.078225225
132	0x3e8f184e	0.2794823
133	0x3dbea50d	0.09308825
134	0x3e4aed44	0.19817072
135	0xbdf7c390	-0.120978475
136	0x3ebd2261	0.36940292
137	0x3d1cfd25	0.038327355
138	0xbe8e6d4e	-0.27817768
139	0xbdd58224	-0.10425213
140	0xbd804768	-0.0626362
141	0xbe075891	-0.13217379
142	0x3e36ad8b	0.17839639
143	0xbe3d2baf	-0.18473695
144	0x3dec48d6	0.1153733
145	0x3ebc54bc	0.36783397
146	0x3ce51a38	0.027966604
147	0x3e4b6fa6	0.19866809
148	0xbe0164fa	-0.12636176
149	0xbd21d219	-0.039507005
150	0x3d8c441e	0.0684893
151	0xbd9eda55	-0.07756487
152	0xbe2c016a	-0.16797414
153	0xbc07669d	-0.008264211
154	0x3eae0b30	0.3399291
155	0xbe33513a	-0.17511454
156	0x3d463232	0.048387714
157	0x3d474ce1	0.0486573
158	0xbe28f910	-0.1650126
159	0x3e8ac04a	0.2709983
160	0x3eaca5a3	0.3372012
161	0x3e218be3	0.15776019
162	0xbd38e331	-0.04513854
163	0xbe04564b	-0.12923543
164	0xbd68915d	-0.056779254
165	0xbdb8480c	-0.08998117
166	0xbe0884fe	-0.13331982
167	0xbb067789	-0.0020518026
168	0xbe36fd9d	-0.17870183
169	0x3e538e25	0.20659693
170	0x3e5797df	0.21054028
171	0x3e70eaba	0.23527041
172	0x3d19fe01	0.037595753
173	0x3c343416	0.010998746
174	0x3ceb4ac4	0.028722174
175	0x3e166b04	0.1468926
176	0x3d5aa5cc	0.053380772
177	0x3e7fd44c	0.24983329
178	0x3eb1b649	0.34709385
179	0xbe129224	-0.1431356
180	0x3d9ff2c4	0.07809976
181	0x3e25d553	0.16194658
182	0xbe09efe1	-0.13470413
183	0x3d8ee5ac	0.069774
184	0x3eb030db	0.34412274
185	0x3d204c45	0.039135236
186	0x3e879c81	0.2648659
187	0xbe0f88d6	-0.14017043
188	0xbe45c30a	-0.19312683
189	0x3eaf2408	0.34207177
190	0xbd89ee81	-0.06734944
191	0xbd32d68e	-0.043661647

lstm.weight_hh_l0 f4 [48, 12]
0	0x3dd53fea	0.10412581
1	0x3e9760b3	0.29565963
2	0x3d902bad	0.070395805
3	0x3ebad47c	0.36490238
4	0x3e0af658	0.13570535
5	0x3dda80de	0.10669111
6	0xbe8b1ca2	-0.27170283
7	0x3e9dd6e0	0.30828
8	0xbb30b3be	-0.0026962603
9	0xbdf3ef7d	-0.11910913
10	0x3b91383b	0.004431752
11	0xbe5391bb	-0.2066106
12	0x3e008cfa	0.12553778
13	0x3e08cbed	0.13359042
14	0xbe3f3214	-0.18671447
15	0xbdf50f14	-0.119657665
16	0xbe28e619	-0.16494025
17	0xbd8863e6	-0.06659679
18	0xbe50c501	-0.20387651
19	0xbca871f3	-0.020562148
20	0xbd261c3a	-0.040554263
21	0xbe123f14	-0.14281875
22	0x3e1838ce	0.1486542
23	0xbe792681	-0.24331094
24	0xbaaaf6eb	-0.0013043558
25	0xbc5eccbd	-0.013598618
26	0x3c0ed75d	0.008718339
27	0x3ce3db65	0.027814576
28	0xbe9b6e37	-0.30357525
29	0xbe1c3b07	-0.15256892
30	0x3c8fe0e2	0.017563287
31	0x3e3f1f8b	0.18664376
32	0xbe9ff5bc	-0.31242168
33	0x3e4ec367	0.20191728
34	0x3db7db5c	0.08977386
35	0xbe548154	-0.2075246
36	0xbed8af60	-0.423213
37	0x3cb1a3a2	0.021684472
38	0x3d8e8f25	0.069608964
39	0x3eafe194	0.3435179
40	0xbea6b7ab	-0.32562003
41	0xbe5bfc7e	-0.21483037
42	0xbdbc21c9	-0.091861315
43	0xbd1d3ba7	-0.038386967
44	0xbebd47e0	-0.369689
45	0x3ec17999	0.37788084
46	0xbe90aa7e	-0.28255075
47	0xbe991d2b	-0.29905066
48	0xbe32b9e6	-0.17453727
49	0x3e88ccc6	0.2671873
50	0xbe6ed829	-0.23324646
51	0xbe3b7668	-0.18306887
52	0xbdebf8e6	-0.11522083
53	0x3e7afbb2	0.24510077
54	0xbd7045f8	-0.058660477
55	0x3e87bd2e	0.2651152
56	0xbe87a8dc	-0.26496017
57	0xbd4801bf	-0.04882979
58	0x3c493cb8	0.012282543
59	0x3e841cfa	0.25803357
60	0xbe9dc35f	-0.3081312
61	0x3df84bc3	0.121238254
62	0x3db816d6	0.089887306
63	0xbcb61929	-0.022228794
64	0x3d56ead1	0.052470032
65	0xbdf71467	-0.12064438
66	0xbeb42b07	-0.35189077
67	0x3e05154b	0.12996404
68	0xbeb0d11b	-0.34534535
69	0x3e6afc01	0.22947694
70	0xbe63fa4e	-0.22263452
71	0xbe68c680	-0.22731972
72	0xbed24187	-0.41065618
73	0x3e9ccc71	0.30624726
74	0x3e436867	0.19082795
75	0x3e2ebf7a	0.1706523
76	0x3da28765	0.07935981
77	0x3cd914f0	0.026499242
78	0x3d0a054d	0.03369646
79	0xbe848926	-0.25885886
80	0x3e0f02cb	0.13965909
81	0x3e37566c	0.17904061
82	0x3d4de160	0.050263762
83	0xbe80ccab	-0.2515615
84	0x3e193d1d	0.14964719
85	0xbe2f45c4	-0.17116457
86	0x3d0e1596	0.034688555
87	0xbb0bb533	-0.002131772
88	0xbdaa7465	-0.08322982
89	0x3e417224	0.18891197
90	0x3e098513	0.1342967
91	0xbe0b01be	-0.13574883
92	0xbe16deb0	-0.14733386
93	0x3eaf8f83	0.34289178
94	0xbe1e0b3a	-0.1543397
95	0xbd4dfdf0	-0.050291
96	0xbe1b330a	-0.15156189
97	0xbe13db0e	-0.14439031
98	0xbe175fee	-0.14782688
99	0x3e844f58	0.25841784
100	0xbc8bd6e4	-0.017070241
101	0x3d0cb6bb	0.034353953
102	0xbe926638	-0.28593612
103	0xbdbb8603	-0.0915642
104	0xbe955f0f	-0.29174086
105	0xbdb38324	-0.087652475
106	0xbe48b827	-0.19601499
107	0x3e356880	0.17715645
108	0x3dd75d37	0.10515826
109	0x3e267dbd	0.16258903
110	0x3d644bcb	0.055736344
111	0x3df5e780	0.12007046
112	0xbd8db44a	-0.06919153
113	0xbea8be56	-0.32957715
114	0xbd8d6e67	-0.06905823
115	0x3bb4c7d1	0.005516984
116	0xbe9e2c35	-0.30893102
117	0x3e889ba5	0.26681247
118	0x3e27c7e2	0.16384843
119	0xbe2be419	-0.16786231
120	0xbe410c97	-0.18852459
121	0x3e36ffb8	0.17870986
122	0x3c147318	0.009060644
123	0x3e65ca36	0.22440419
124	0xbeb9bcfa	-0.3627699
125	0xbede4fe8	-0.4342034
126	0x3de80d07	0.1133061
127	0x3da18b79	0.078879304
128	0x3d4dd8c8	0.050255567
129	0x3eb15bc6	0.3464033
130	0xbdfe9e9d	-0.12432597
131	0xbe719425	-0.23591669
132	0xbe9406db	-0.2891148
133	0x3e4f2b85	0.20231445
134	0xbe398e65	-0.18120725
135	0x3d484aaf	0.04889935
136	0xbe8c5bae	-0.27413696
137	0xbe8c6b82	-0.27425772
138	0xbdd6bc51	-0.10485137
139	0xbe61728f	-0.22016357
140	0x3e0987b8	0.13430679
141	0xbd8b9abf	-0.06816625
142	0xbed21674	-0.41032755
143	0xbd9c6530	-0.076364875
144	0xbed44145	-0.41456047
145	0xbd6fee3f	-0.05857682
146	0xbbea2612	-0.0071456516
147	0x3e75bb84	0.23997313
148	0x3dc50b4a	0.09621294
149	0xbdb72ec8	-0.0894447
150	0xbdae6cfc	-0.08516881
151	0x3e7b8cb2	0.2456539
152	0xbd10aaa1	-0.035318974
153	0x3e7f5e8a	0.24938408
154	0x3e387045	0.18011577
155	0xbec7df2b	-0.3903745
156	0xbe1d74d6	-0.153766
157	0x3eb32dcc	0.34995878
158	0xbe914f01	-0.28380588
159	0x3edab754	0.42717993
160	0xbe56dafb	-0.20981972
161	0xbea469cb	-0.32111964
162	0xbd79b9cf	-0.060968217
163	0x3d842818	0.0645296
164	0xbd9797c4	-0.07401994
165	0x3eb13a5b	0.34614834
166	0xbe2ee5a2	-0.17079785
167	0xbe658a56	-0.22416052
168	0xbde0cf43	-0.10977032
169	0x3d323817	0.043510523
170	0x3d4348fe	0.047677033
171	0x3e88d406	0.2672426
172	0xbe93642d	-0.28787366
173	0xbeb8b894	-0.36078322
174	0xbe2bb14e	-0.16766855
175	0x3e781100	0.24225235
176	0xbe9c3173	-0.30506477
177	0x3c1adf04	0.009452585
178	0x3c321094	0.01086821
179	0xbed40bec	-0.41415346
180	0x3d8342d1	0.064092286
181	0x3e80c932	0.251535
182	0x3d8e9356	0.06961696
183	0x3cde946e	0.027170386
184	0xbe65fa3b	-0.22458737
185	0x3ce5927e	0.028023954
186	0xbee17a1d	-0.44038478
187	0x3c837dc4	0.01605118
188	0xbea96ab6	-0.33089226
189	0x3e862a99	0.26204374
190	0x3d1debad	0.038554836
191	0xbd85fb75	-0.06542102
192	0x3ea37a2f	0.31929156
193	0xbe8e6a87	-0.2781565
194	0xbe66ee0b	-0.22551744
195	0x3e67ce18	0.22637212
196	0x3ca1141f	0.019662915
197	0x3e6dbcc5	0.23216541
198	0xbe1d6451	-0.15370299
199	0x3e820c83	0.2540017
200	0xbcbcbf71	-0.023040505
201	0xbe6b1663	-0.22957759
202	0x3e99ed82	0.30064017
203	0xbe4b2411	-0.19837977
204	0x3dad98cf	0.084764116
205	0x3e0d3a28	0.13791716
206	0x3d8b3058	0.0679633
207	0x3d3214d5	0.0434769
208	0x3deb2827	0.11482268
209	0x3e3022b3	0.17200737
210	0xbe7984c0	-0.24367046
211	0xbbe8c231	-0.0071032275
212	0xbe7912cc	-0.24323577
213	0x3df6a045	0.12042288
214	0xbed61d8f	-0.41819426
215	0xbd02f020	-0.031967282
216	0xbead0c9f	-0.33798692
217	0xbd843f70	-0.06457412
218	0xbe6e7d14	-0.23289901
219	0x3d569fd6	0.052398525
220	0x3cdb1ba2	0.026746575
221	0xbe9ab259	-0.30214193
222	0xbe4daeb7	-0.2008618
223	0x3e90a9fd	0.2825469
224	0x3e025aaf	0.12729906
225	0xbde9d7aa	-0.11418088
226	0x3bec6133	0.0072137355
227	0xbe909731	-0.2824035
228	0xbd43aa36	-0.047769748
229	0x3d96ea87	0.07368951
230	0x3c7413e7	0.014897323
231	0xbe2a2e03	-0.16619115
232	0xbd4ab7d0	-0.049491704
233	0xbde2c427	-0.11072569
234	0xbdae5770	-0.08512771
235	0x3e47429e	0.19459006
236	0xbe73d138	-0.2381028
237	0xbd828e4b	-0.063747965
238	0x3d67de30	0.05660838
239	0xbea067e1	-0.31329253
240	0xbb797766	-0.0038065552
241	0x3e88cf94	0.2672087
242	0x3cb86764	0.022510238
243	0x3e601ece	0.21886751
244	0xbec38b20	-0.3819208
245	0xbe590cc8	-0.21196282
246	0xbe0a9c15	-0.13536103
247	0x3eaa1f0e	0.33226818
248	0x3e146010	0.1448977
249	0x3dfde0ad	0.12396369
250	0xbdfee019	-0.12445087
251	0xbe0193c1	-0.1265402
252	0x3e1cca7d	0.15311618
253	0xbd83ef6e	-0.06442152
254	0xbdfa2858	-0.12214726
255	0x3e848b13	0.25887355

lstm.bias_ih_l0 f4 [48]
0	0x3eb9afde	0.3626699
1	0xbe0ccf74	-0.13751012
2	0x3e99be6d	0.30028096
3	0x3e11d0ee	0.14239857
4	0x3dd616ce	0.104535684
5	0x3d949141	0.072542675
6	0x3e29692e	0.16544029
7	0x3dd3328c	0.103123754
8	0x3ea0df8a	0.31420547
9	0x3e99acb7	0.30014583
10	0xbde382e7	-0.11108952
11	0x3c70effb	0.014705653
12	0x3daffb5f	0.08592867
13	0xbde155d4	-0.110026985
14	0x3dad0356	0.08447902
15	0x3ea0805d	0.31347933
16	0x3ea6ef8b	0.32604632
17	0x3e6601bc	0.22461599
18	0x3dec0aab	0.11525472
19	0xbb84cab5	-0.004052485
20	0x3ec37750	0.38176966
21	0xbe170b83	-0.14750485
22	0x3e590169	0.21191944
23	0x3e4861d8	0.19568574
24	0x3d1894af	0.03725117
25	0xbdf89149	-0.12137086
26	0xbebe8682	-0.37211996
27	0xbd120da3	-0.035657536
28	0xbd8a2c61	-0.06746746
29	0x3e19f93b	0.1503648
30	0x3daefe13	0.085445546
31	0xbd275053	-0.040848088
32	0xbea82278	-0.32838798
33	0x3e95dfaa	0.29272205
34	0x3ded7324	0.11594227
35	0xbdbfab70	-0.09358871
36	0xbd1ab31c	-0.03776847
37	0x3df13d2c	0.11779246
38	0x3e109382	0.1411877
39	0x3e1189f4	0.14212781
40	0xbd9c5e88	-0.07635218
41	0x3e298a96	0.16556773
42	0x3e34dc29	0.1766211
43	0xbd6c7b8d	-0.057735015
44	0xbc6bbbec	-0.014388066
45	0x3caf98fe	0.021435257
46	0x3d3db0c0	0.04631114
47	0x3e761731	0.24032284

lstm.bias_hh_l0 f4 [48]
0	0xbd899ba6	-0.06719141
1	0x3e2451a4	0.16046768
2	0x3ea39ecb	0.31957087
3	0x3e9cf800	0.3065796
4	0x3e92228c	0.28541982
5	0xbd3cb92f	-0.046075042
6	0x3cecf313	0.0289245
7	0x3bbbbd04	0.0057293195
8	0xbc595d68	-0.013266899
9	0x3e853bde	0.26022238
10	0x3ea55608	0.322922
11	0xbd9d01c1	-0.0766635
12	0x3eb627e6	0.35577315
13	0x3eadfebb	0.33983406
14	0x3e23741d	0.15962262
15	0x3ea054b5	0.31314626
16	0x3e593985	0.21213348
17	0x3ea1cf4a	0.31603462
18	0x3ea7aa1d	0.32746974
19	0x3e1c188a	0.15243736
20	0x3e97fa9e	0.29683393
21	0x3d3008cf	0.04297715
22	0xbd2bf133	-0.041978072
23	0xbda239c0	-0.07921171
24	0xbd45810c	-0.04821877
25	0x3e8c5e51	0.27415708
26	0xbe7b72a9	-0.24555458
27	0x3e049f61	0.12951423
28	0xbed39df3	-0.41331443
29	0xbe96329b	-0.29335484
30	0xbe0b7667	-0.13619386
31	0x3ea0904e	0.31360096
32	0xbec7a996	-0.3899657
33	0x3d5d2976	0.05399462
34	0x3dad8cd8	0.084741294
35	0x3ce2f3a9	0.027704077
36	0x3e8bf575	0.27335706
37	0xbca867f9	-0.02055739
38	0x3db6513c	0.08902213
39	0xbd778778	-0.060431927
40	0xbd5b87f3	-0.05359645
41	0xbe0c0eab	-0.1367747
42	0x3d5f3030	0.054489315
43	0xbd9033ea	-0.07041152
44	0x3e77c818	0.24197423
45	0x3e66508a	0.2249166
46	0x3e90d9a4	0.28291047
47	0x3ebbc8fe	0.36676782

lstm.weight_ih_l1 f4 [48, 12]
0	0xbcfaa554	-0.030596413
1	0xbe4444e8	-0.1916691
2	0xbe524449	-0.20533861
3	0xbe88ef66	-0.26745147
4	0x3d00109f	0.03126585
5	0x3e855437	0.26040813
6	0x3e5c4090	0.21509004
7	0xbe5a1be7	-0.21299706
8	0x3e1ffad0	0.15623021
9	0xbd787676	-0.06065985
10	0x3eaa3bda	0.33248788
11	0x3e98a969	0.2981675
12	0x3dc5c90e	0.09657489
13	0x3d00804a	0.031372346
14	0xbe9f9821	-0.31170753
15	0x3ea5e854	0.32403815
16	0xbe05a8eb	-0.13052718
17	0xbe8d38c1	-0.27582362
18	0xbd7963b3	-0.060886096
19	0xbe04b4d2	-0.12959602
20	0x3d708eaa	0.058729805
21	0x3e4cc463	0.1999679
22	0xbe4e5ed6	-0.20153365
23	0xbe0994fe	-0.13435742
24	0xbe29360e	-0.16524526
25	0x3dae4e5b	0.08511039
26	0x3d9ba32d	0.07599483
27	0xbe22f98d	-0.15915509
28	0x3e3df218	0.18549383
29	0x3e290495	0.16505654
30	0xbd86f222	-0.06589152
31	0x3eaff19e	0.34364027
32	0xbe6990da	-0.22809163
33	0x3e0c6dec	0.13713807
34	0x3eb88843	0.3604146
35	0x3cdfc1a1	0.02731401
36	0x3e87859d	0.26469126
37	0xbbd5e3a4	-0.006527381
38	0xbe29f479	-0.16597165
39	0x3e040eab	0.1289622
40	0xbe1d8073	-0.1538103
41	0x3d96fd31	0.07372511
42	0xbe2e5a19	-0.17026557
43	0xbdafe62d	-0.085888244
44	0xbe24e733	-0.1610382
45	0xbe1b36c9	-0.15157618
46	0xbdea4b7a	-0.11440177
47	0xbdf88dc2	-0.12136413
48	0xbce51833	-0.02796564
49	0x3d1f5f32	0.038909145
50	0xbe53f289	-0.20697989
51	0x3dcd7315	0.10031716
52	0xbe7abf5a	-0.24487057
53	0xbea8d62a	-0.32975894
54	0x3d5719b6	0.052514754
55	0x3e67d0d1	0.22638251
56	0x3d79e80a	0.061012305
57	0x3dc46dee	0.0959128
58	0xbe6430cd	-0.22284241
59	0x3b154788	0.0022778232
60	0xbe9a41a8	-0.30128217
61	0xbc6cfa7f	-0.01446402
62	0xbe68ba90	-0.22727418
63	0xbde9d9f4	-0.114185244
64	0xbd3dc2b5	-0.046328265
65	0xbe9f54b6	-0.31119317
66	0x3caef636	0.021357637
67	0x3e25aaee	0.16178486
68	0x3e64da4d	0.223489
69	0x3e8036f1	0.25041917
70	0xbecc9e29	-0.39964417
71	0x3d9c19cc	0.07622108
72	0xbeda642d	-0.42654553
73	0xbe0a4070	-0.13501143
74	0x3dad2dba	0.08455987
75	0xbb959849	-0.004565273
76	0xbd823c36	-0.063591406
77	0xbe64dfb8	-0.22350967
78	0xbe011b85	-0.12608154
79	0x3e78422d	0.24243994
80	0xbd99b259	-0.0750472
81	0x3eb476a1	0.35246757
82	0x3da066bc	0.07832095
83	0xbdd124eb	-0.1021212
84	0xbe816bec	-0.2527765
85	0x3e35daf7	0.1775931
86	0xbd417565	-0.047231097
87	0x3d81b3f1	0.06333149
88	0x3e8188a7	0.2529957
89	0x3d8c0729	0.06837303
90	0x3ddc4d5f	0.10756945
91	0x3c1e8d8c	0.009677302
92	0xbdbe7f1f	-0.0930159
93	0x3d9fba9f	0.07799267
94	0xbd6226e1	-0.05521286
95	0xbea951f9	-0.33070353
96	0x3c811c15	0.01576046
97	0xbd364f37	-0.04450914
98	0xbe481327	-0.19538556
99	0xbc847cf2	-0.01617286
100	0xbe968e56	-0.2940547
101	0x3dad9fb8	0.084777296
102	0x3ae93a5d	0.0017793883
103	0x3e63ab1d	0.22233243
104	0x3d5bf0f8	0.053696603
105	0x3e0d96e5	0.13827093
106	0x3dc77acf	0.09740221
107	0xbe67fcc0	-0.2265501
108	0xbe1dcbc5	-0.15409763
109	0x3ed853e7	0.42251512
110	0x3d35b3ab	0.044360798
111	0x3cca325b	0.024682214
112	0xbdfe8e56	-0.12429492
113	0x3c98d1a1	0.018654646
114	0x3dcd15cf	0.10013925
115	0x3ec7ec42	0.39047438
116	0xbe794065	-0.24340971
117	0x3e0830f0	0.13299918
118	0xbd68a9dd	-0.05680262
119	0xbe1da1dc	-0.15393776
120	0xbe6163a0	-0.2201066
121	0x3e50bf0f	0.20385383
122	0xbec3a3a9	-0.382108
123	0x3e747b07	0.23875056
124	0xbe4c6391	-0.19959857
125	0x3dde7f53	0.10864129
126	0xbe4710d2	-0.1944001
127	0x3ed2ceac	0.41173303
128	0xbefcf198	-0.4940307
129	0x3eaf3013	0.34216365
130	0xbe4ce538	-0.20009315
131	0xbe825771	-0.25457337
132	0x3e142e09	0.14470686
133	0x3c4834d3	0.0122196255
134	0xbe99bc93	-0.30026683
135	0x3df72088	0.12066752
136	0x3c8158e2	0.015789453
137	0xbe86ff7d	-0.26366797
138	0x3d1e41d9	0.038637016
139	0xbdf65683	-0.120282196
140	0xbecdd209	-0.40199307
141	0xbd8bb406	-0.06821446
142	0xbdd06b78	-0.10176748
143	0xbda9f3fc	-0.082984895
144	0xbe483ad4	-0.19553691
145	0x3d7a9134	0.061173633
146	0xbd6e2ba2	-0.05814708
147	0xbe0c0f22	-0.13677648
148	0xbc191046	-0.009342259
149	0x3e15101f	0.14556931
150	0x3d951b2d	0.07280574
151	0x3e3263e6	0.1742092
152	0xbe607ee1	-0.219234
153	0x3e17add0	0.14812398
154	0x3eaec4c3	0.34134492
155	0x3d5890b1	0.052872363
156	0xbe2cd9d2	-0.16879967
157	0xbcdf888f	-0.027286796
158	0x3d64e0a5	0.0558783
159	0x3eacc2b7	0.33742306
160	0xbce5cf7d	-0.02805304
161	0xbc8ae1da	-0.016953398
162	0xbdd5e2c9	-0.104436465
163	0x3df0b9c4	0.11754182
164	0xbe3e8fb6	-0.18609509
165	0xbe0c8a2d	-0.13724585
166	0xbd82760f	-0.06370174
167	0x3db5f2b8	0.088841856
168	0x3e588a8a	0.21146598
169	0xbe7b14cb	-0.2451965
170	0x3db4b46f	0.088234775
171	0x3e6f7cbc	0.23387426
172	0xbca97f3d	-0.020690555
173	0xbe14109f	-0.14459465
174	0xbd8ef30a	-0.0697995
175	0xbcc566e7	-0.02409692
176	0xbe9ee802	-0.31036383
177	0xbd5f0677	-0.054449525
178	0x3db19d64	0.08672598
179	0xbd2ec63d	-0.042669524
180	0xbd372e25	-0.04472174
181	0x3e75c44f	0.24000667
182	0xb7c8764b	-2.3896942e-05
183	0x3e49644f	0.19667171
184	0x3d1c4d43	0.03815962
185	0x3e3f29d9	0.18668307
186	0xbe5b5824	-0.21420342
187	0x3e3ca221	0.18421222
188	0xbcb222e2	-0.021745149
189	0x3e95326f	0.2914004
190	0x3cd95eb6	0.02653442
191	0xbe2c279c	-0.16811985
192	0xbe8f1014	-0.27941954
193	0x3e86b9c1	0.26313594
194	0xbd3b69aa	-0.045755066
195	0xbdf27635	-0.118389525
196	0xbe6f989b	-0.23398058
197	0xbdc78e11	-0.09743894
198	0xbe88b7bf	-0.26702687
199	0x3e6575ab	0.22408168
200	0xbdf04442	-0.11731769
201	0xbde8a9fa	-0.113605455
202	0xbea0668e	-0.31328243
203	0x3dde910d	0.1086751
204	0xbe9c7935	-0.30561224
205	0x3d023e81	0.03179789
206	0x3e6dfcca	0.23240963
207	0xbd8fb810	-0.07017529
208	0x3984540b	0.0002523962
209	0xbd94b721	-0.072614916
210	0xbe89f207	-0.26942465
211	0x3e58a767	0.21157609
212	0xbea605b0	-0.32426214
213	0xbe20c743	-0.15701012
214	0xbe0850f0	-0.13312125
215	0xbe902f89	-0.28161266
216	0x3e73d2c7	0.23810874
217	0xbc8ceb1f	-0.017201958
218	0xbeb007d6	-0.34380978
219	0x3e43c782	0.19119075
220	0x3dac3f96	0.084105656
221	0x3d43c438	0.04779455
222	0xbe7351d2	-0.2376168
223	0xbe0694fe	-0.13142774
224	0x3d0a9193	0.033830237
225	0x3e5a3dca	0.21312633
226	0xbdffe3e9	-0.12494642
227	0xbe0901fc	-0.13379663
228	0xbda65b03	-0.08122828
229	0xbcbbabaf	-0.022909014
230	0xbe86f15b	-0.26356015
231	0xbdf8d800	-0.12150574
232	0x3e263e68	0.16234744
233	0xbdb6aeab	-0.08920034
234	0xbce768bc	-0.028248183
235	0x3e171bc2	0.14756683
236	0xbd0260f7	-0.031830754
237	0xbe2e7928	-0.17038405
238	0xbeb21f4b	-0.347895
239	0x3c975e9a	0.018477727
240	0xbe7ab2d5	-0.24482282
241	0x3d9a8ebf	0.07546758
242	0xbe704e0c	-0.23467273
243	0x3e820df8	0.25401282
244	0xbe62fc24	-0.22166497
245	0xbe6cbadc	-0.23118156
246	0xbead9239	-0.33900622
247	0xbe64fb3b	-0.22361462
248	0x3e1387e1	0.14407302
249	0xbe10ae26	-0.14128932
250	0xbeb3da2d	-0.35127392
251	0xbc801c68	-0.015638545
252	0xbe9342a2	-0.28761774
253	0xbc6fbe5e	-0.014632789
254	0x3cbbf219	0.02294259
255	0x3e564d2b	0.20927875

lstm.weight_hh_l1 f4 [48, 12]
0	0xbc4a3a88	-0.0123430565
1	0xbe3d8620	-0.18508196
2	0x3db56978	0.08858007
3	0x3e7d0483	0.24708752
4	0x3eb46d0d	0.3523945
5	0x3d950053	0.072754525
6	0x3b6fa3a5	0.0036566046
7	0x3e3f8ad2	0.187053
8	0xbe641d05	-0.22276695
9	0xbce125f0	-0.02748391
10	0xbded6c96	-0.11592977
11	0xbc26e6d9	-0.010186874
12	0x3b92f12d	0.004484317
13	0x3e6b810b	0.22998445
14	0xbe9c5480	-0.30533218
15	0xbe36368b	-0.17794244
16	0xbb45126c	-0.0030070795
17	0xbe96e903	-0.2947465
18	0xbe625500	-0.22102737
19	0x3e8fb691	0.28068975
20	0x3df803be	0.12110089
21	0x3cb3a87a	0.021930922
22	0x3cce8010	0.02520755
23	0xbe1bc635	-0.15212329
24	0x3d3dd383	0.04634429
25	0xbd21e698	-0.039526552
26	0x3c06f304	0.00823665
27	0xbe0d6989	-0.1380979
28	0xbe54f6b2	-0.20797232
29	0x3d1fdc2a	0.039028324
30	0x3e51c80b	0.20486467
31	0x3e91428f	0.28371093
32	0xbd8e3c55	-0.06945101
33	0x3c848c95	0.016180316
34	0xbe80c636	-0.25151223
35	0x3dda5f8b	0.106627546
36	0x3e061c80	0.1309681
37	0x3dd69115	0.10476891
38	0xbc5b4b96	-0.01338472
39	0x3e164b2f	0.14677118
40	0xbe15ec57	-0.14640938
41	0x3d398e83	0.045301925
42	0xbe0fff8a	-0.14062324
43	0x3e937309	0.28798702
44	0xbcc5e38a	-0.02415635
45	0xbe783bda	-0.24241582
46	0xbc169d27	-0.0091927415
47	0x3e8a5d29	0.270242
48	0xbe5142b7	-0.20435606
49	0x3e85f6c7	0.2616484
50	0xbe62d338	-0.22150886
51	0x3e90b1ea	0.28260738
52	0xbe8771f3	-0.26454124
53	0xbc41ba25	-0.0118241655
54	0x3cafb9c1	0.021450879
55	0x3e49ca1c	0.19706005
56	0xbd20cc2d	-0.039257217
57	0x3e6090c4	0.21930224
58	0xbd33afb7	-0.043868747
59	0x3e147965	0.14499433
60	0xb8043b80	-3.1526666e-05
61	0x3e914538	0.28373122
62	0x3d747478	0.059681386
63	0xbd3db6ed	-0.04631703
64	0xbe1bfdf0	-0.15233588
65	0xbe5f3d8a	-0.21800819
66	0xbd0478fd	-0.032341946
67	0xbd9bef2b	-0.07613977
68	0x3d7fb3ee	0.062427454
69	0x3e9ad990	0.30244112
70	0x3e6d7d33	0.23192291
71	0x3e01f1c1	0.12689878
72	0xbcb212fe	-0.021737572
73	0x3d860d01	0.06545449
74	0x3da1e302	0.079046264
75	0x3e864988	0.26227975
76	0x3d57a42d	0.052646805
77	0xbeda61c1	-0.42652705
78	0x3e1b5060	0.1516738
79	0x3e2c6f6b	0.16839378
80	0x3c72c90f	0.014818444
81	0xbc39ce39	-0.011340671
82	0xbdc7cfa0	-0.09756398
83	0xbe2e31e3	-0.17011218
84	0xbe961a52	-0.29316956
85	0xbd8687cb	-0.06568869
86	0xbe388900	-0.18021011
87	0xbe06dc6c	-0.13170022
88	0xbc1a54b1	-0.009419606
89	0xbd9ee438	-0.07758373
90	0x3d95e87d	0.07319734
91	0xbe1d0c13	-0.15336637
92	0xbe172e65	-0.14763792
93	0xbd9d844e	-0.07691251
94	0x3de35175	0.11099521
95	0x3befdf35	0.0073203095
96	0xbd510eb0	-0.051039398
97	0xbe41e638	-0.18935478
98	0xbe7666b2	-0.24062613
99	0xbe6fa0f4	-0.23401242
100	0x3de567f4	0.11201468
101	0x3d9c1fca	0.07623251
102	0xbe8c7dfa	-0.27439862
103	0x3e8e593b	0.27802452
104	0xbe96e882	-0.29474264
105	0x3d193787	0.03740647
106	0x3d94bf1a	0.07263012
107	0xbe530a87	-0.20609485
108	0xbec47275	-0.38368574
109	0x3e206d5e	0.1566672
110	0xbe661381	-0.22468378
111	0xbd844ef2	-0.0646037
112	0xbde8336c	-0.11337933
113	0xbe9acbe1	-0.30233672
114	0x3d529e6e	0.05142062
115	0x3cc20ae8	0.023686841
116	0x3ddd457a	0.10804267
117	0x3c494659	0.012284839
118	0x3e60fe58	0.21972024
119	0x3e370ac4	0.178752
120	0xbd4d62be	-0.050142996
121	0x3e7adc92	0.24498203
122	0xbe998c0a	-0.29989654
123	0x3e698ca7	0.22807561
124	0xbd1192a8	-0.035540253
125	0xbcc2be00	-0.02377224
126	0x3e3b9b49	0.18320955
127	0x3e275408	0.16340649
128	0xbe3b3907	-0.18283473
129	0xbe0eb8a0	-0.13937616
130	0x3e0c8da2	0.13725904
131	0xbe4a0d66	-0.19731674
132	0xbcfc14ba	-0.030771602
133	0xbccf5845	-0.025310645
134	0xbe011dfe	-0.12609097
135	0x3e9f4944	0.31110585
136	0xbd08d364	-0.033404723
137	0xbe975c84	-0.2956277
138	0xbe12bb53	-0.14329271
139	0x3ed9fa5d	0.42573825
140	0xbe9481b7	-0.29005215
141	0x3d5084d2	0.050907917
142	0xbe15d4da	-0.14631978
143	0x3d8204ea	0.063485935
144	0xbd99b020	-0.07504296
145	0x3d725179	0.05915973
146	0xbc6ad018	-0.01433184
147	0xbe527893	-0.20553808
148	0xbe59d549	-0.21272768
149	0xbe22a3e9	-0.1588284
150	0xbce82387	-0.028337253
151	0x3df52ef0	0.11971843
152	0x3de5b502	0.11216165
153	0xbe5e3b8e	-0.21702406
154	0xbe5d03b8	-0.2158345
155	0xbe3e9e34	-0.18615037
156	0xbea622e3	-0.3244849
157	0x3e3be381	0.18348505
158	0x3e3a7bf7	0.18211351
159	0xbdd7c77f	-0.10536098
160	0x3d6f9183	0.05848838
161	0xbe8eaa53	-0.27864322
162	0xbce3a221	-0.02778727
163	0x3dde0e1d	0.10842536
164	0x3e17cac5	0.14823444
165	0x3bdc0b6b	0.0067152283
166	0xbe0fdcd4	-0.14049083
167	0x3ebe210f	0.37134597
168	0x3de26e7c	0.110562295
169	0xbe6109fb	-0.21976463
170	0xbe9b13fd	-0.30288687
171	0x3e05135d	0.12995668
172	0xbe05c5c3	-0.13063721
173	0x3ab60489	0.001388685
174	0x3df621fd	0.120182015
175	0x3e4248ad	0.18973036
176	0x3e0cd5c6	0.13753423
177	0xbee05156	-0.43812054
178	0xbd715692	-0.05892045
179	0xbe547410	-0.207474
180	0x3e492304	0.19642264
181	0x3e83865c	0.25688446
182	0x3e354fe8	0.17706263
183	0xbe2acc1c	-0.16679424
184	0xbe84107a	-0.2579382
185	0xbdf6ca4a	-0.12050302
186	0xbe3c520f	-0.18390678
187	0xbd9b7e54	-0.075924546
188	0x3c483e28	0.01222185
189	0xbdc0654e	-0.09394322
190	0xbd809f4e	-0.06280385
191	0x3db3796a	0.08763392
192	0x3d28b61f	0.04118931
193	0x3e1f40da	0.15552083
194	0x3d3c76c2	0.046011694
195	0x3d8b67f8	0.0680694
196	0xbe584931	-0.2112167
197	0x3dd667d1	0.1046902
198	0xbe8c43e0	-0.27395535
199	0x3e8f5fc8	0.28002763
200	0xbe87fd5a	-0.2656048
201	0x3d280d71	0.041028444
202	0x3d0bb979	0.034112427
203	0x3dc0dc07	0.09416967
204	0xbd36654e	-0.044530205
205	0x3ebcb713	0.36858425
206	0x3ccb47b3	0.024814462
207	0xbe8e6ef1	-0.27819017
208	0x3d2210f7	0.03956696
209	0x3d725daf	0.059171375
210	0x3d7dfd05	0.062008876
211	0x3d444092	0.04791314
212	0xbea401ef	-0.32032725
213	0x3dff0643	0.12452366
214	0x3e5b7375	0.21430762
215	0x3d43cd18	0.047803015
216	0xbeb443b2	-0.35207897
217	0xbe061b77	-0.13096415
218	0xbc8a214a	-0.016861577
219	0x3d6a6585	0.057225723
220	0xbe34cdad	-0.17656584
221	0xbe549dbf	-0.207633
222	0xbe690cc2	-0.22758773
223	0x3eafe7d8	0.3435657
224	0xbcbc3956	-0.022976559
225	0xbaadc622	-0.0013257901
226	0xbd9e5af8	-0.07732195
227	0xbe0b22a9	-0.1358744
228	0xbe4bf9a4	-0.19919449
229	0x3e38b56b	0.18037955
230	0x3e343b30	0.17600703
231	0x3d58fd1f	0.05297577
232	0x3e5a251b	0.21303217
233	0xbe93cc39	-0.28866747
234	0x3e369a67	0.17832337
235	0x3d89c86a	0.06727679
236	0xbd0f8abf	-0.035044428
237	0xbe3db3e5	-0.18525656
238	0x3ea9e463	0.33182058
239	0xbdfcf9fe	-0.1235237
240	0x3e07901f	0.13238572
241	0x3e00295f	0.12515782
242	0xbe9e1f1e	-0.30883116
243	0x3d9e588c	0.07731733
244	0xbde2da74	-0.11076823
245	0xbe4f53e9	-0.20246853
246	0x3d7b3f58	0.061339706
247	0xbe2faa32	-0.17154768
248	0xbe3e4f6e	-0.18584988
249	0x3eabbb68	0.33541417
250	0x3eb672ed	0.35634556
251	0x3e9df591	0.30851415
252	0xbe956906	-0.2918169
253	0x3e92c72b	0.28667578
254	0xbe9f280c	-0.3108524
255	0xbe18a4fa	-0.14906684

lstm.bias_ih_l1 f4 [48]
0	0x3eae20a9	0.34009293
1	0x3e152190	0.14563584
2	0x3ea1bd92	0.31589943
3	0xbb53eefb	-0.0032338488
4	0x3eeea270	0.46608305
5	0xbe8b19cc	-0.2716812
6	0xbb9a5529	-0.004709859
7	0x3e7586bc	0.23977178
8	0xbc3501b4	-0.011047769
9	0x3e143031	0.14471509
10	0x3e49c609	0.1970445
11	0x3e84da6e	0.259479
12	0x3e99cbdb	0.30038342
13	0x3e18672a	0.14883104
14	0xbde70c8d	-0.11281691
15	0xbdd858f8	-0.105638444
16	0x3e4f345e	0.2023482
17	0x3e1fa711	0.15591075
18	0x3eb50676	0.35356492
19	0x3e38a4a7	0.1803156
20	0xbc52c985	-0.012865429
21	0xbd92e461	-0.07172466
22	0xbd6b1c98	-0.057400316
23	0xbdc5ff78	-0.096678674
24	0xbd829bd1	-0.06377376
25	0x3c88de00	0.01670742
26	0xbe8ce4ea	-0.27518398
27	0x3d976f35	0.07394258
28	0x3dd1db8d	0.10246954
29	0xbd89343c	-0.06699416
30	0xbd24819b	-0.040162664
31	0x3dde1149	0.10843141
32	0x3d5ff7be	0.054679625
33	0xbe8f1788	-0.2794764
34	0xbe7773f7	-0.24165331
35	0xbe5e4f37	-0.21709906
36	0x3e360ca9	0.17778267
37	0x3e52bd42	0.20580009
38	0x3eaa3b10	0.33248186
39	0x3e7b0ccc	0.245166
40	0x3e67b7cc	0.22628707
41	0x3e5fb225	0.218453
42	0x3efab8cd	0.48969117
43	0x3cc78471	0.024355145
44	0xbdfbb2a4	-0.12289932
45	0x3ec3ce40	0.38243294
46	0x3e50d175	0.20392402
47	0x3ee6c8df	0.45075127

lstm.bias_hh_l1 f4 [48]
0	0xbe2a2303	-0.16614918
1	0x3e39e15a	0.18152371
2	0x3c95fc0b	0.01830866
3	0xbd952dad	-0.072841026
4	0xbd3266c6	-0.043555044
5	0xbb7c4d0f	-0.003849808
6	0x3eb8b42c	0.3607496
7	0x3e15a67b	0.14614289
8	0xbe44f0ab	-0.19232433
9	0x3efed693	0.49773082
10	0x3ed1a5f7	0.40946934
11	0xbdcb7ea9	-0.09936268
12	0x3e701361	0.23444892
13	0xbe2d30f4	-0.16913205
14	0xbd4cf6dc	-0.05004011
15	0x3e74ccba	0.23906222
16	0x3dacdccc	0.08440551
17	0xbe3e78e0	-0.18600798
18	0x3e83802c	0.25683725
19	0x3e228e19	0.15874518
20	0x3e7ba346	0.24574003
21	0x3e094cac	0.13408154
22	0xbe1016b4	-0.1407116
23	0xbe09a1dd	-0.13440652
24	0xbeb20e96	-0.34776753
25	0x3de2cc72	0.11074151
26	0xbd97d293	-0.07413211
27	0x3eaa61c6	0.3327772
28	0xbd14e63d	-0.036352385
29	0xbdb26815	-0.08711258
30	0x3e61edab	0.2206332
31	0x3e4f9eef	0.20275472
32	0xbe32faf0	-0.17478538
33	0x3da24a67	0.07924347
34	0xbb2b875f	-0.0026173217
35	0x3e0addf0	0.13561225
36	0x3e672cb5	0.22575648
37	0xbdaf9f6c	-0.08575329
38	0x3df78a25	0.12086896
39	0x3e7d7339	0.24750985
40	0x3eb12446	0.34597987
41	0xbdbec6a8	-0.093152344
42	0xbcc9e219	-0.024643945
43	0x3db4fbd4	0.08837095
44	0x3e740377	0.23829447
45	0x3e550a57	0.20804726
46	0x3ee168d5	0.44025293
47	0x3e824af4	0.2544781

classifier.weight f4 [2, 12]
0	0x3cb56ae7	0.022145702
1	0x3edff760	0.4374342
2	0x3dca168d	0.098675825
3	0xbeb65c48	-0.3561728
4	0xbd572896	-0.05252894
5	0xbea05bf3	-0.31320152
6	0xbeb90ddd	-0.3614339
7	0x3ddfc22e	0.10925709
8	0xbed1c1b5	-0.409681
9	0x3e98b555	0.29825845
10	0x3ea19c08	0.31564355
11	0x3e913a59	0.28364828
12	0xbec517de	-0.38494772
13	0xbedefd57	-0.43552658
14	0xbecc5187	-0.3990595
15	0x3ef01f31	0.46898797
16	0x3edbf9f0	0.42964125
17	0xbc71521f	-0.014729052
18	0x3edc6de2	0.43052584
19	0xbd8a5434	-0.06754342
20	0x3edc2bbc	0.43002117
21	0xbeb51354	-0.3536631
22	0xbef47903	-0.47748575
23	0xbf0a4679	-0.5401378

classifier.bias f4 [2]
0	0xbe820cc3	-0.2540036
1	0x3e0b6084	0.13611037
